dags/spark_job/landslide_identification.onnx (onnx, 98998 bytes, 14 tensors)

fc1.weight f4 [128, 100]
000000 03 05 55 3d c7 ca 98 bd 54 78 23 3e ce f1 9e bd
       0.052006733 -0.07460552 0.1596387 -0.07760964
000010 26 ca 1a be bf c9 4d 3e 57 c1 e7 bd af 73 b0 bd
       -0.15116176 0.20096491 -0.113161735 -0.08615815
000020 6f 8e 46 bd b0 7d ae 3c 7d a3 2b bc 20 3e 2f bd
       -0.04847568 0.021300167 -0.01047599 -0.042783856
000030 f0 33 80 bd 66 f5 a6 be 00 63 8a be 3e 5f 9c 3e
       -0.06259906 -0.326091 -0.27028656 0.30541414
000040 4a ca 48 be 21 1d 36 3e 86 0a 3e be ea 31 24 bd
       -0.19608417 0.1778455 -0.18558702 -0.040086664
000050 e5 fc de bd ba 9a 37 3e 1f 4f 38 be 97 ed c4 be
       -0.108880796 0.17930117 -0.17998932 -0.38462517
000060 09 35 9d bb 3b 4a b2 3d bd 09 ed bd 1a 94 82 be
       -0.004797582 0.087055646 -0.11574123 -0.25503618
000070 16 c7 3a 3d dd d7 86 be 64 2a d0 be 3b 73 80 3b
       0.04560002 -0.26336566 -0.4065734 0.0039199865
000080 f3 0e 1e 3d 6a 44 63 3d 1b 4d 22 3e dc 0a 4c 3e
       0.038588475 0.055485167 0.15849726 0.19926018
000090 7b f4 66 bc 9d a8 97 be 24 72 2c 3e fc 8b 91 be
       -0.014096375 -0.2962083 0.16840416 -0.28427112
0000a0 c7 6b a0 bb dc 56 bb 3c 14 16 5b 3c e8 fa 70 3d
       -0.0048956606 0.022868566 0.013371963 0.058833033
0000b0 52 3b a4 3c 4c 60 8d 3c 54 cf 9a 3c 00 ac 0d be
       0.020047817 0.017257832 0.01889769 -0.13835144
0000c0 0e 95 69 be bc 97 9b 3d 9f 0c 26 3e 95 bc 72 3e
       -0.22810766 0.075973004 0.16215752 0.23704751
0000d0 b5 0e 8d 3b 09 55 74 3e 1a 03 33 3e dd fb 61 3e
       0.0043047317 0.23860563 0.17481652 0.22068734
0000e0 83 dd 44 bc 51 b5 18 3e 66 7f 86 3d 00 a2 86 3d
       -0.012015703 0.14912917 0.06567268 0.06573868
0000f0 3d 96 d7 bd 02 52 97 3c 1e c4 b9 bd 89 65 93 3e
       -0.105267026 0.018471722 -0.090706095 0.28788403
000100 0f 4b 12 3c 85 31 be 3d 7d f2 cf bd ff 87 09 3e
       0.008929028 0.09286789 -0.10153673 0.13430785
000110 a6 f0 e6 3d 3b cd 1f 3d 49 0d ce 3d 15 11 85 3e
       0.11276369 0.039014082 0.10061128 0.25989595
000120 0e 56 96 3e 05 1f fb bd cb 9f ea bd 4b 50 25 3e
       0.2936253 -0.12261776 -0.11456259 0.1614391
000130 8c 05 76 be c3 d9 06 3e d8 0c ec 3d 88 e1 79 bd
       -0.24025553 0.13169007 0.11525887 -0.0610061
000140 b9 35 0d bd 5d f3 97 be df 96 9e 3d e1 0d a4 3d
       -0.034475062 -0.2967786 0.0774362 0.0801046
000150 97 fb 83 3d 16 aa 80 bd 18 7c 93 3c 68 c0 14 bd
       0.06444471 -0.06282441 0.018003508 -0.036316305
000160 3b 11 ec 3c 6d ec 2a 3e 04 49 f6 3d c8 56 2f be
       0.02881681 0.16691752 0.120256454 -0.17122948
000170 d8 85 56 be 91 44 a0 bd 9a c7 4e be 64 b1 07 be
       -0.20949495 -0.07825578 -0.2019333 -0.13251263
000180 ac 48 2f 3d 37 28 31 3d 69 ca 89 bd 70 d7 22 3e
       0.042793915 0.043251242 -0.0672806 0.15902495
000190 cd bd 86 3e 85 51 fd bb dc 46 d9 3d c9 69 4a bd
       0.26316682 -0.007730665 0.106092185 -0.04941729
0001a0 02 80 88 3e 81 ee 0d be cd 3a a8 bd 9c 41 f4 3d
       0.26660162 -0.13860513 -0.0821434 0.119265765
0001b0 62 1e 24 be f2 ca 70 bd d2 1a 8b 3d 96 f7 58 3d
       -0.16027215 -0.058787294 0.06792225 0.05297049
0001c0 e8 0f 08 be 6e 0c b8 bd 76 d4 73 bd 32 23 0f 3e
       -0.13287318 -0.08986746 -0.05952879 0.1397827
0001d0 0c e3 8f bc 85 83 bc 3c 9b 2a ef 3c 2d 43 02 be
       -0.01756432 0.023011932 0.02919512 -0.12720938
0001e0 5e 10 0b be 68 e7 db 3d 62 97 50 bd d5 66 c7 be
       -0.13580462 0.107374966 -0.05092562 -0.38945642
0001f0 57 fd 09 3d bd fb 05 bd 2b 05 dd 3d 16 3e df 3d
       0.03368887 -0.03271078 0.10792001 0.10900514
000200 c0 95 0d 3e 3c fb 44 bd 0d f1 68 3e a2 f8 71 3c
       0.13826656 -0.04809116 0.22748204 0.014768751
000210 7f 48 9b bc 2a 0b 71 be 04 1b 99 bd 15 3b 7b bd
       -0.018955467 -0.23539415 -0.07475856 -0.061335642
000220 60 eb 8a bc a9 49 f5 3d 77 7c 40 be c4 e5 82 3d
       -0.016957939 0.1197694 -0.1879748 0.063914806
000230 c8 f9 79 bd 5d 51 08 3d 99 84 18 bd 76 b1 1c be
       -0.061029226 0.03328072 -0.03723583 -0.15302071
000240 80 0a 79 bd 30 9e b0 3d 8e 2e 74 3c e3 44 1c 3d
       -0.06080103 0.08623922 0.014903678 0.038151633
000250 f0 5e 5f 3e ee 95 21 3e af f2 b0 bd 59 43 28 be
       0.2181356 0.1577985 -0.08640038 -0.16431941
000260 d0 a3 7f 3e 2e 87 17 b7 3d 88 16 be 98 b8 36 bd
       0.24964833 -9.031775e-06 -0.14700408 -0.044609636
000270 c8 69 2d be 00 3b bf 3d 4e fe de 3d 3e 0c 88 be
       -0.16934884 0.09337425 0.108883485 -0.2657184
000280 0b 08 71 bd 35 7c 0b be 14 cf 7f be a2 42 85 be
       -0.05884556 -0.136216 -0.24981338 -0.260274
000290 78 c3 16 3e 3d 82 5a bc bd 12 ed bd f8 68 60 3d
       0.14723003 -0.013336715 -0.1157584 0.054787606
0002a0 76 ee c9 3d 3e 89 c5 3d 57 66 94 be 72 c4 60 3d
       0.09859936 0.096453175 -0.2898433 0.054874845
0002b0 67 df db 3c a0 4f 94 be c8 a5 77 3e 90 ad 30 be
       0.026839925 -0.28967 0.24184334 -0.17253709
0002c0 5d 6e 47 3e 20 e0 ea bd 11 52 08 3d 35 01 71 bd
       0.19475694 -0.1146853 0.03328139 -0.05883904
0002d0 8d 8f 97 3d a5 bc 3d 3c 33 8b 81 3a e5 31 68 3d
       0.07400427 0.011580621 0.0009883404 0.056688208
0002e0 27 28 29 3e a6 32 f0 ba 68 fb 1d be 6a 37 c6 3c
       0.16519223 -0.0018325641 -0.15427935 0.024196345
0002f0 91 6a 17 3e 22 b0 31 bd c7 38 28 bc a4 f5 bc 3d
       0.14786746 -0.043380864 -0.010267443 0.0922654
000300 46 32 ac bd e4 49 cf 3d 6f 65 fd 3d 73 3c ff 3d
       -0.084080264 0.101215154 0.123728625 0.12462702
000310 6f 7e 2a 3d 8b eb 47 3d 0e ed d8 bd 32 f2 c1 bd
       0.041624483 0.048808616 -0.105920896 -0.09470023
000320 8e 73 05 3d 8d 64 49 3e e8 0b 12 be 11 27 57 3d
       0.032580905 0.19667263 -0.14262354 0.05252749
000330 99 2a 6d 3d 1f 52 cb bd c1 ef 9b 3e d2 3b 2a be
       0.057901952 -0.09927773 0.30456355 -0.16624382
000340 53 58 ec 3c 42 d3 82 bd 30 ed b1 bc 94 73 8c bd
       0.02885071 -0.063879505 -0.021719545 -0.06857982
000350 ae 58 c7 3c 09 20 0e be 56 c0 fe bd 6b c3 62 3d
       0.024334278 -0.13879408 -0.12439029 0.055362146
000360 bd 9f 40 3e cf 29 26 be 59 0c 37 3c ca 74 b9 ba
       0.18810935 -0.16226886 0.0111723775 -0.0014149186
000370 7b a4 32 be f6 39 60 3d c2 15 22 be 66 84 46 3c
       -0.17445557 0.054742776 -0.15828612 0.012116527
000380 b5 f5 1a bb f5 4b ed bd ee 9c 41 3d 5b fc 0b 3e
       -0.0023644988 -0.11586753 0.0472688 0.13670485
000390 51 5b 6b bc 2d bf 9d be 6a 97 8c bd f2 c3 a3 3d
       -0.014365033 -0.30809918 -0.068648174 0.07996358
0003a0 21 65 9f 3d 9c 4d 43 be a0 20 02 3d ca e1 45 be
       0.07782961 -0.19072574 0.031769395 -0.19324413
0003b0 dd f6 85 bd 9e 26 27 bd 60 f8 ac be b0 19 8f 3d
       -0.06541226 -0.040808313 -0.33783245 0.069873214
0003c0 58 eb e7 3d 9f a2 04 be 5a d1 0c 3e 4d 02 08 be
       0.11324185 -0.1295266 0.13751736 -0.13282128
0003d0 27 3f e4 3d 6a 94 fe 3b 24 38 1b bc 0e 3e 4b 3c
       0.11144858 0.007769157 -0.009473834 0.012404932
0003e0 d9 10 a4 be bd 9e c0 bd de ea 23 bc 3e 24 ca 3d
       -0.32044104 -0.09405277 -0.010004727 0.09870194
0003f0 91 27 a0 be dc f5 5d be 6a 2e 69 bd 70 0c 56 3d
       -0.31280187 -0.21675819 -0.05692903 0.052257955

fc1.bias f4 [128]
000000 00 00 00 00 00 00 00 00 00 00 00 00 00 00 00 00
       0.0 0.0 0.0 0.0
000010 00 00 00 00 00 00 00 00 00 00 00 00 00 00 00 00
       0.0 0.0 0.0 0.0
000020 00 00 00 00 00 00 00 00 00 00 00 00 00 00 00 00
       0.0 0.0 0.0 0.0
000030 00 00 00 00 00 00 00 00 00 00 00 00 00 00 00 00
       0.0 0.0 0.0 0.0
000040 00 00 00 00 00 00 00 00 00 00 00 00 00 00 00 00
       0.0 0.0 0.0 0.0
000050 00 00 00 00 00 00 00 00 00 00 00 00 00 00 00 00
       0.0 0.0 0.0 0.0
000060 00 00 00 00 00 00 00 00 00 00 00 00 00 00 00 00
       0.0 0.0 0.0 0.0
000070 00 00 00 00 00 00 00 00 00 00 00 00 00 00 00 00
       0.0 0.0 0.0 0.0
000080 00 00 00 00 00 00 00 00 00 00 00 00 00 00 00 00
       0.0 0.0 0.0 0.0
000090 00 00 00 00 00 00 00 00 00 00 00 00 00 00 00 00
       0.0 0.0 0.0 0.0
0000a0 00 00 00 00 00 00 00 00 00 00 00 00 00 00 00 00
       0.0 0.0 0.0 0.0
0000b0 00 00 00 00 00 00 00 00 00 00 00 00 00 00 00 00
       0.0 0.0 0.0 0.0
0000c0 00 00 00 00 00 00 00 00 00 00 00 00 00 00 00 00
       0.0 0.0 0.0 0.0
0000d0 00 00 00 00 00 00 00 00 00 00 00 00 00 00 00 00
       0.0 0.0 0.0 0.0
0000e0 00 00 00 00 00 00 00 00 00 00 00 00 00 00 00 00
       0.0 0.0 0.0 0.0
0000f0 00 00 00 00 00 00 00 00 00 00 00 00 00 00 00 00
       0.0 0.0 0.0 0.0
000100 00 00 00 00 00 00 00 00 00 00 00 00 00 00 00 00
       0.0 0.0 0.0 0.0
000110 00 00 00 00 00 00 00 00 00 00 00 00 00 00 00 00
       0.0 0.0 0.0 0.0
000120 00 00 00 00 00 00 00 00 00 00 00 00 00 00 00 00
       0.0 0.0 0.0 0.0
000130 00 00 00 00 00 00 00 00 00 00 00 00 00 00 00 00
       0.0 0.0 0.0 0.0
000140 00 00 00 00 00 00 00 00 00 00 00 00 00 00 00 00
       0.0 0.0 0.0 0.0
000150 00 00 00 00 00 00 00 00 00 00 00 00 00 00 00 00
       0.0 0.0 0.0 0.0
000160 00 00 00 00 00 00 00 00 00 00 00 00 00 00 00 00
       0.0 0.0 0.0 0.0
000170 00 00 00 00 00 00 00 00 00 00 00 00 00 00 00 00
       0.0 0.0 0.0 0.0
000180 00 00 00 00 00 00 00 00 00 00 00 00 00 00 00 00
       0.0 0.0 0.0 0.0
000190 00 00 00 00 00 00 00 00 00 00 00 00 00 00 00 00
       0.0 0.0 0.0 0.0
0001a0 00 00 00 00 00 00 00 00 00 00 00 00 00 00 00 00
       0.0 0.0 0.0 0.0
0001b0 00 00 00 00 00 00 00 00 00 00 00 00 00 00 00 00
       0.0 0.0 0.0 0.0
0001c0 00 00 00 00 00 00 00 00 00 00 00 00 00 00 00 00
       0.0 0.0 0.0 0.0
0001d0 00 00 00 00 00 00 00 00 00 00 00 00 00 00 00 00
       0.0 0.0 0.0 0.0
0001e0 00 00 00 00 00 00 00 00 00 00 00 00 00 00 00 00
       0.0 0.0 0.0 0.0
0001f0 00 00 00 00 00 00 00 00 00 00 00 00 00 00 00 00
       0.0 0.0 0.0 0.0

bn1.weight f4 [128]
000000 00 00 80 3f 00 00 80 3f 00 00 80 3f 00 00 80 3f
       1.0 1.0 1.0 1.0
000010 00 00 80 3f 00 00 80 3f 00 00 80 3f 00 00 80 3f
       1.0 1.0 1.0 1.0
000020 00 00 80 3f 00 00 80 3f 00 00 80 3f 00 00 80 3f
       1.0 1.0 1.0 1.0
000030 00 00 80 3f 00 00 80 3f 00 00 80 3f 00 00 80 3f
       1.0 1.0 1.0 1.0
000040 00 00 80 3f 00 00 80 3f 00 00 80 3f 00 00 80 3f
       1.0 1.0 1.0 1.0
000050 00 00 80 3f 00 00 80 3f 00 00 80 3f 00 00 80 3f
       1.0 1.0 1.0 1.0
000060 00 00 80 3f 00 00 80 3f 00 00 80 3f 00 00 80 3f
       1.0 1.0 1.0 1.0
000070 00 00 80 3f 00 00 80 3f 00 00 80 3f 00 00 80 3f
       1.0 1.0 1.0 1.0
000080 00 00 80 3f 00 00 80 3f 00 00 80 3f 00 00 80 3f
       1.0 1.0 1.0 1.0
000090 00 00 80 3f 00 00 80 3f 00 00 80 3f 00 00 80 3f
       1.0 1.0 1.0 1.0
0000a0 00 00 80 3f 00 00 80 3f 00 00 80 3f 00 00 80 3f
       1.0 1.0 1.0 1.0
0000b0 00 00 80 3f 00 00 80 3f 00 00 80 3f 00 00 80 3f
       1.0 1.0 1.0 1.0
0000c0 00 00 80 3f 00 00 80 3f 00 00 80 3f 00 00 80 3f
       1.0 1.0 1.0 1.0
0000d0 00 00 80 3f 00 00 80 3f 00 00 80 3f 00 00 80 3f
       1.0 1.0 1.0 1.0
0000e0 00 00 80 3f 00 00 80 3f 00 00 80 3f 00 00 80 3f
       1.0 1.0 1.0 1.0
0000f0 00 00 80 3f 00 00 80 3f 00 00 80 3f 00 00 80 3f
       1.0 1.0 1.0 1.0
000100 00 00 80 3f 00 00 80 3f 00 00 80 3f 00 00 80 3f
       1.0 1.0 1.0 1.0
000110 00 00 80 3f 00 00 80 3f 00 00 80 3f 00 00 80 3f
       1.0 1.0 1.0 1.0
000120 00 00 80 3f 00 00 80 3f 00 00 80 3f 00 00 80 3f
       1.0 1.0 1.0 1.0
000130 00 00 80 3f 00 00 80 3f 00 00 80 3f 00 00 80 3f
       1.0 1.0 1.0 1.0
000140 00 00 80 3f 00 00 80 3f 00 00 80 3f 00 00 80 3f
       1.0 1.0 1.0 1.0
000150 00 00 80 3f 00 00 80 3f 00 00 80 3f 00 00 80 3f
       1.0 1.0 1.0 1.0
000160 00 00 80 3f 00 00 80 3f 00 00 80 3f 00 00 80 3f
       1.0 1.0 1.0 1.0
000170 00 00 80 3f 00 00 80 3f 00 00 80 3f 00 00 80 3f
       1.0 1.0 1.0 1.0
000180 00 00 80 3f 00 00 80 3f 00 00 80 3f 00 00 80 3f
       1.0 1.0 1.0 1.0
000190 00 00 80 3f 00 00 80 3f 00 00 80 3f 00 00 80 3f
       1.0 1.0 1.0 1.0
0001a0 00 00 80 3f 00 00 80 3f 00 00 80 3f 00 00 80 3f
       1.0 1.0 1.0 1.0
0001b0 00 00 80 3f 00 00 80 3f 00 00 80 3f 00 00 80 3f
       1.0 1.0 1.0 1.0
0001c0 00 00 80 3f 00 00 80 3f 00 00 80 3f 00 00 80 3f
       1.0 1.0 1.0 1.0
0001d0 00 00 80 3f 00 00 80 3f 00 00 80 3f 00 00 80 3f
       1.0 1.0 1.0 1.0
0001e0 00 00 80 3f 00 00 80 3f 00 00 80 3f 00 00 80 3f
       1.0 1.0 1.0 1.0
0001f0 00 00 80 3f 00 00 80 3f 00 00 80 3f 00 00 80 3f
       1.0 1.0 1.0 1.0

fc2.weight f4 [64, 128]
000000 ad f8 4f be 6b 59 43 3e 69 fc c7 3d 0c 02 33 3e
       -0.20309706 0.19077079 0.0976494 0.1748125
000010 43 83 7e 3b 9e 1f 7b bd df 4b 6f 3d 5f 0e 0c be
       0.0038835562 -0.06130945 0.058421966 -0.13677357
000020 9c ac e3 bd 16 21 8b 3d 68 86 25 3e 65 f8 c8 bc
       -0.11116907 0.0679342 0.16164553 -0.024532506
000030 1c 50 49 be 7d 3a 0c 3c 02 95 6f be 39 b3 10 3e
       -0.19659466 0.008558867 -0.23396686 0.14130868
000040 eb b6 65 3d 3c c9 1d be a5 95 a4 bd c5 eb 41 be
       0.056082647 -0.15408796 -0.08036355 -0.18937595
000050 d8 4f 0f 3e 21 61 14 3d 3c a8 1d 3e 4c ad cc 3d
       0.13995302 0.03622544 0.15396208 0.09993991
000060 52 a1 02 bc 3e 8f 38 3c 1a bd b7 bd c3 d7 1e 3e
       -0.007973032 0.01126462 -0.08971615 0.15511994
000070 6d bb d3 3d b0 12 82 3b d1 c3 14 3e 89 34 8d 3d
       0.10338483 0.003969513 0.14527823 0.06894786
000080 9c d9 94 bd dc 84 65 3d 03 bd 72 be 21 84 37 bd
       -0.07268068 0.056034908 -0.23704915 -0.044803742
000090 19 cf f2 bb a4 8f 25 3e 36 3a 21 3c c2 4a 97 be
       -0.007409942 0.16168076 0.009840539 -0.29549223
0000a0 b5 06 0f be a3 a4 17 3d f0 1f 95 bb 6a db 21 3e
       -0.13967402 0.037022244 -0.0045509264 0.15806356
0000b0 2e 2a d5 3d f7 f5 4d 3d d7 1c 47 bd 1c e7 6d 3c
       0.10408436 0.0502834 -0.04861149 0.014520433
0000c0 16 99 64 be fd 22 f7 3d 68 31 6d 3c ab 59 ea 3d
       -0.22324023 0.1206722 0.014477111 0.11442884
0000d0 47 43 dd 3a 2f 8f a4 3d 42 e6 9b bd d7 60 b7 bd
       0.0016881012 0.080351226 -0.076122776 -0.089540176
0000e0 b1 c2 ab bc c3 44 7b bc 91 9f 8b 3d b8 dd 6c bd
       -0.02096686 -0.015336218 0.06817544 -0.057828635
0000f0 e4 f1 63 3e b9 d7 86 3d 88 87 00 be da a2 38 bd
       0.22260243 0.065841146 -0.12551701 -0.045077182
000100 3e a0 1f 3e 99 2c 42 bd 00 89 dd bd 8f a4 ce bd
       0.15588471 -0.047405813 -0.10817146 -0.10089981
000110 fa 55 80 bd c4 47 48 be 83 6b be bd 8e 4d 58 3d
       -0.06266399 -0.19558626 -0.0929785 0.052808337
000120 06 85 b4 3d b1 3a f5 3d 73 c5 59 3e 80 de 7d bc
       0.08814435 0.11974085 0.21266727 -0.015494943
000130 a2 e4 5b bd 14 c0 b2 bc bf 88 2e 3d b1 9f 63 be
       -0.053684838 -0.021820106 0.04261088 -0.22228886
000140 5d bd 8b bd 16 72 58 3e c5 d0 b9 bd 30 c3 00 bc
       -0.068232276 0.2113727 -0.09073023 -0.007859036
000150 6e df 7c 3d ad 6d 28 bd 79 81 d6 ba 7e b1 ab 3c
       0.061736517 -0.04112022 -0.001636549 0.020958658
000160 82 48 27 3e 65 61 83 bc 24 f3 a5 bd 5f ad 16 bd
       0.16336253 -0.016037652 -0.08103016 -0.036786433
000170 08 08 ec bc 29 4f 47 bd c5 a0 0b be 74 59 e0 3d
       -0.028812423 -0.048659477 -0.13635547 0.10954562
000180 77 1c 2a be 67 6e 2f be 6a 42 8a 3c eb ba 86 3d
       -0.16612421 -0.17131959 0.016877372 0.065786205
000190 83 77 82 bd 54 23 1b 3e 3a 6a b9 3d 47 7b 70 3d
       -0.06370451 0.15150195 0.09053464 0.058711316
0001a0 fc b4 74 3d f6 57 34 3d 32 ee 31 3d e9 e6 00 3d
       0.059742913 0.0440292 0.04344005 0.031470213
0001b0 f8 59 41 3e 61 41 b6 bd 84 30 17 3c 59 8b 51 3d
       0.18881977 -0.08899189 0.009227876 0.051158283
0001c0 bc 05 2a bd 46 9f 52 3d ca 53 5b bd b7 03 f7 bc
       -0.041509375 0.051421426 -0.053546704 -0.030153139
0001d0 93 61 9e bd 15 da 71 3d 2a d5 25 3e e3 d5 e1 3d
       -0.077334546 0.05904587 0.16194597 0.11027124
0001e0 9a 98 23 bd 6c 39 ac bd 4e 37 04 3e c3 44 ae 3d
       -0.039940454 -0.0840939 0.12911722 0.08509209
0001f0 d1 64 88 3d 86 91 4e bd da 33 50 be 78 02 3c bd
       0.06659854 -0.05043175 -0.2033228 -0.045900792
000200 9b eb 47 bd 5d bb cf bd d6 f7 79 3d 59 47 89 3d
       -0.048808675 -0.101431586 0.06102737 0.067030616
000210 a1 b8 e4 bc be 87 08 3d 9d cc 03 3e d3 da a7 be
       -0.02792007 0.03333258 0.12871023 -0.32784137
000220 1c 29 8d 3e 66 57 e3 bd 65 87 88 bd b0 8a 65 bd
       0.27570426 -0.11100654 -0.066664495 -0.056040466
000230 bb 34 80 3e 62 a3 bc bd ed 87 c8 bd e8 31 b2 3e
       0.2504023 -0.0921085 -0.09791551 0.348037
000240 c4 4c 9e 3d f8 78 7e bd 39 39 d4 bd 66 b0 59 be
       0.07729486 -0.062127084 -0.10362477 -0.21258697
000250 92 31 5e bd b7 58 15 be 89 4e 1f 3d 94 ba 10 ba
       -0.054246493 -0.14584623 0.038893256 -0.00055209664
000260 03 14 81 3a cc 2d 1f 3c e3 bb 17 3e 49 fe 3b be
       0.0009847883 0.009715509 0.14817767 -0.18358721
000270 17 fc 09 3e 6d fe e6 3c 71 58 82 bd 44 c7 e8 3d
       0.13475071 0.028197492 -0.06364525 0.11366132
000280 cb 59 58 bd 80 0e a5 bd 2a 86 b3 3c 49 6b 59 3e
       -0.05282001 -0.08059406 0.02191456 0.21232332
000290 8a b1 9d 3d 54 8c bb 3c c7 bb 8f be e5 85 c7 bc
       0.076998785 0.022894062 -0.2807295 -0.024355838
0002a0 86 a2 9d bd 48 de c7 bc 2c d2 2d 3e 98 14 10 bd
       -0.076970145 -0.024397984 0.16974705 -0.03517589
0002b0 91 10 2c bd df 6d 46 3d 0c fd c7 bb b7 86 d8 3d
       -0.042007986 0.048444625 -0.0061031636 0.1057257
0002c0 e7 04 2f 3b 48 99 3e 3e 86 1a 80 3e 6c 94 86 3d
       0.0026705803 0.1861316 0.25020236 0.06571278
0002d0 7c 65 c8 3c d9 c2 81 3c 49 86 4f bd bf 49 18 bd
       0.024462454 0.01583998 -0.050665174 -0.037179705
0002e0 b3 bb 98 3e be b1 04 bd 9a 78 fe 3b e2 0b df bc
       0.29830703 -0.03239607 0.0077658417 -0.027227346
0002f0 a6 91 82 3b 9b 15 21 be 82 ae 80 3d ec fb f0 3c
       0.003984648 -0.15730898 0.06283285 0.029417
000300 ad 9a 3f 3e 3a 9c cf bd 56 44 01 bc 18 0a 14 bd
       0.18711348 -0.1013722 -0.007889828 -0.03614244
000310 7c 86 dd 3d 9b 4f b9 3d 55 5d 39 3c d0 19 db bd
       0.108166665 0.09048387 0.011313756 -0.10698283
000320 ab aa 98 bd 12 81 c2 bc 87 46 a1 3d 72 b9 fe bd
       -0.07454427 -0.023743186 0.0787478 -0.12437715
000330 78 d0 49 3e b4 bd 07 be e6 89 7e 3d 38 0b 47 3e
       0.19708431 -0.1325596 0.06214323 0.19437873
000340 e2 b4 13 be 29 cc 00 3e 7c a8 2e be 23 c9 ee bd
       -0.1442447 0.12577881 -0.17056459 -0.116594575
000350 9f 87 3e 3d 39 51 1f be e2 34 49 be 68 29 17 3e
       0.046516057 -0.15558328 -0.1964908 0.14761889
000360 25 48 7e 3d a6 4c 39 3e 19 b9 80 bd d8 eb 71 3e
       0.06208052 0.18095645 -0.062853046 0.23625124
000370 e1 ae 56 bd 41 cd ad bd f4 ba 05 be 9e ff 8d bc
       -0.05241287 -0.08486415 -0.13059598 -0.017333802
000380 ee 25 99 3d 8d 8b 3c bd bd 39 1e be 47 5f 10 3e
       0.07477938 -0.046031523 -0.15451713 0.14098845
000390 d1 e3 8d be 13 f6 5f bd 70 69 6f 3d 9f 18 10 bd
       -0.27712873 -0.054678034 0.058450162 -0.03517973
0003a0 1b b4 f9 bd ff 37 45 3e f8 e1 a2 bd 88 7e ad bc
       -0.121925555 0.19259642 -0.07953256 -0.021178499
0003b0 68 c3 2e bd 55 77 c9 bd db 09 dc bc a1 09 07 be
       -0.042666823 -0.09837214 -0.026860168 -0.13187267
0003c0 ce 1b f6 3d 01 29 81 3e bb c7 a4 3d 13 85 9f bd
       0.12017022 0.25226596 0.08045908 -0.07789054
0003d0 56 c7 cf bd cb 7a 7e bc f1 d1 de bd 69 aa 85 bd
       -0.10145442 -0.015532206 -0.10879887 -0.06526644
0003e0 06 26 76 3e 6e 9e a0 3c 58 e9 98 3c 36 46 88 bd
       0.24037942 0.019606795 0.018665954 -0.06654017
0003f0 a0 d6 c8 bd fe a4 46 3d 02 bd ff bd 59 9c ce 3d
       -0.098065615 0.048497193 -0.12487222 0.10088415

fc2.bias f4 [64]
000000 00 00 00 00 00 00 00 00 00 00 00 00 00 00 00 00
       0.0 0.0 0.0 0.0
000010 00 00 00 00 00 00 00 00 00 00 00 00 00 00 00 00
       0.0 0.0 0.0 0.0
000020 00 00 00 00 00 00 00 00 00 00 00 00 00 00 00 00
       0.0 0.0 0.0 0.0
000030 00 00 00 00 00 00 00 00 00 00 00 00 00 00 00 00
       0.0 0.0 0.0 0.0
000040 00 00 00 00 00 00 00 00 00 00 00 00 00 00 00 00
       0.0 0.0 0.0 0.0
000050 00 00 00 00 00 00 00 00 00 00 00 00 00 00 00 00
       0.0 0.0 0.0 0.0
000060 00 00 00 00 00 00 00 00 00 00 00 00 00 00 00 00
       0.0 0.0 0.0 0.0
000070 00 00 00 00 00 00 00 00 00 00 00 00 00 00 00 00
       0.0 0.0 0.0 0.0
000080 00 00 00 00 00 00 00 00 00 00 00 00 00 00 00 00
       0.0 0.0 0.0 0.0
000090 00 00 00 00 00 00 00 00 00 00 00 00 00 00 00 00
       0.0 0.0 0.0 0.0
0000a0 00 00 00 00 00 00 00 00 00 00 00 00 00 00 00 00
       0.0 0.0 0.0 0.0
0000b0 00 00 00 00 00 00 00 00 00 00 00 00 00 00 00 00
       0.0 0.0 0.0 0.0
0000c0 00 00 00 00 00 00 00 00 00 00 00 00 00 00 00 00
       0.0 0.0 0.0 0.0
0000d0 00 00 00 00 00 00 00 00 00 00 00 00 00 00 00 00
       0.0 0.0 0.0 0.0
0000e0 00 00 00 00 00 00 00 00 00 00 00 00 00 00 00 00
       0.0 0.0 0.0 0.0
0000f0 00 00 00 00 00 00 00 00 00 00 00 00 00 00 00 00
       0.0 0.0 0.0 0.0

bn2.weight f4 [64]
000000 00 00 80 3f 00 00 80 3f 00 00 80 3f 00 00 80 3f
       1.0 1.0 1.0 1.0
000010 00 00 80 3f 00 00 80 3f 00 00 80 3f 00 00 80 3f
       1.0 1.0 1.0 1.0
000020 00 00 80 3f 00 00 80 3f 00 00 80 3f 00 00 80 3f
       1.0 1.0 1.0 1.0
000030 00 00 80 3f 00 00 80 3f 00 00 80 3f 00 00 80 3f
       1.0 1.0 1.0 1.0
000040 00 00 80 3f 00 00 80 3f 00 00 80 3f 00 00 80 3f
       1.0 1.0 1.0 1.0
000050 00 00 80 3f 00 00 80 3f 00 00 80 3f 00 00 80 3f
       1.0 1.0 1.0 1.0
000060 00 00 80 3f 00 00 80 3f 00 00 80 3f 00 00 80 3f
       1.0 1.0 1.0 1.0
000070 00 00 80 3f 00 00 80 3f 00 00 80 3f 00 00 80 3f
       1.0 1.0 1.0 1.0
000080 00 00 80 3f 00 00 80 3f 00 00 80 3f 00 00 80 3f
       1.0 1.0 1.0 1.0
000090 00 00 80 3f 00 00 80 3f 00 00 80 3f 00 00 80 3f
       1.0 1.0 1.0 1.0
0000a0 00 00 80 3f 00 00 80 3f 00 00 80 3f 00 00 80 3f
       1.0 1.0 1.0 1.0
0000b0 00 00 80 3f 00 00 80 3f 00 00 80 3f 00 00 80 3f
       1.0 1.0 1.0 1.0
0000c0 00 00 80 3f 00 00 80 3f 00 00 80 3f 00 00 80 3f
       1.0 1.0 1.0 1.0
0000d0 00 00 80 3f 00 00 80 3f 00 00 80 3f 00 00 80 3f
       1.0 1.0 1.0 1.0
0000e0 00 00 80 3f 00 00 80 3f 00 00 80 3f 00 00 80 3f
       1.0 1.0 1.0 1.0
0000f0 00 00 80 3f 00 00 80 3f 00 00 80 3f 00 00 80 3f
       1.0 1.0 1.0 1.0

fc3.weight f4 [32, 64]
000000 bb 66 83 3e 3e f5 a6 3d be 25 70 3e e6 fa 01 3e
       0.25664315 0.08152245 0.23451898 0.12693366
000010 c8 02 f1 bd 5c dd 94 be 9b d3 9c be cf f6 bf bd
       -0.117681086 -0.29075134 -0.30630192 -0.09373247
000020 3a 68 24 3e 23 51 8f 3b 19 57 33 be da 1c 82 3e
       0.16055384 0.004373686 -0.17513694 0.25412637
000030 37 3e 05 bd 22 64 f6 bd 8c 31 08 3d 98 e8 ac bd
       -0.032530036 -0.120308176 0.033250377 -0.08442801
000040 6b 93 89 3e 5d 4c 07 bf 2a f2 8a 3e 4f 47 55 3e
       0.26870283 -0.52850896 0.27137882 0.20827983
000050 b2 92 68 3e 01 a4 99 bc fa cd 11 be 6f 1f 80 be
       0.2271221 -0.018754961 -0.1423873 -0.25023982
000060 ed 26 c7 bd 7d 84 50 be 07 71 20 bd dd d8 1d bd
       -0.097242214 -0.2036304 -0.03917029 -0.038536895
000070 d8 d9 48 3e e3 33 94 bd 10 e6 fa bd 50 a9 1a bf
       0.19614351 -0.07236459 -0.12250912 -0.604146
000080 fb be d4 bd 73 28 c3 bd 1c 40 b4 bd 86 f2 72 bc
       -0.10387989 -0.095291995 -0.088012904 -0.01482833
000090 aa 4d f2 bd eb 53 29 3e 6a 48 87 bd 66 ae 72 bd
       -0.118312195 0.16535918 -0.06605609 -0.05924835
0000a0 16 6d 71 bd 01 0f 25 be 93 dd 0f bc bd 17 21 bd
       -0.058941923 -0.16119005 -0.008780855 -0.03932928
0000b0 26 3f 95 bc 36 a0 09 3e a8 e1 45 be 2a 81 97 bd
       -0.018218588 0.13440022 -0.19324362 -0.07397683
0000c0 4c 46 1c bd f5 b0 32 3e 5c dd 5b 3d d6 08 61 3d
       -0.038152978 0.17450316 0.0536779 0.054940067
0000d0 9d 34 ed bc 76 39 3b 3c 40 d2 1d 3e e6 50 33 3e
       -0.028955752 0.011427274 0.15412235 0.17511329
0000e0 4b 57 d0 bc c3 10 ab 3e 93 e7 6e bd 00 d0 64 3d
       -0.02543225 0.33411226 -0.058326315 0.055862427
0000f0 cc a3 ad 3d b4 09 87 3e cd 7b 0f 3d d3 72 88 bd
       0.084785074 0.2637459 0.035030175 -0.06662526
000100 9c a7 ce 3d cd 41 07 be 90 ab 7d bd 33 41 47 3e
       0.10090563 -0.13208695 -0.061931193 0.19458465
000110 b3 20 8d bc fc 6c 77 3d 84 db b3 3d a0 85 a0 be
       -0.017227506 0.06040667 0.08782104 -0.31351948
000120 c2 06 21 3d 1b d0 44 be f1 8e b4 3c 70 96 83 bd
       0.039313085 -0.19220011 0.022040816 -0.06425178
000130 35 3a 7a 3c e0 78 4e be eb a6 c1 bd 1b 30 60 3e
       0.015272667 -0.20163298 -0.09455665 0.21893351
000140 1c ed 61 3d c6 2c 3a be 68 e0 94 be 94 58 64 3e
       0.055157766 -0.18181142 -0.29077458 0.22299415
000150 52 f9 90 be ae e0 fc bd 6e cd a2 3d 93 6c 9c 3d
       -0.28315216 -0.12347542 0.07949339 0.076378964
000160 e5 ad ef bb a7 64 18 3d 3c 29 00 3d b8 34 34 3d
       -0.007314431 0.037205365 0.031289324 0.04399559
000170 8f 7f 2e 3d fa 4f e2 bd c1 dc 65 be 4c 37 f4 3d
       0.042602118 -0.110504106 -0.22447492 0.119246095
000180 b1 ef 9b be 4a 8f 3d 3e 42 c3 47 3e b2 a7 36 bb
       -0.30456308 0.18511692 0.19508079 -0.002787095
000190 42 2c d0 ba d2 6f d5 3d 0c a8 e4 be c9 5f 11 be
       -0.001588233 0.10421719 -0.4465946 -0.14196695
0001a0 d6 c7 07 3d f9 fc 9f 3d 71 86 d2 bc 28 13 e6 bd
       0.033149563 0.078119226 -0.025698872 -0.112341225
0001b0 65 b1 59 bb d5 eb 01 bd 91 74 92 3d 9b 71 62 be
       -0.0033217308 -0.031719048 0.071511395 -0.2211365
0001c0 61 2d 4a 3e 41 70 63 3e cd 44 22 3e d1 25 95 3d
       0.19743873 0.2221079 0.15846558 0.072826035
0001d0 f9 78 38 3e d2 52 39 be 87 7c 00 be 68 ec ad 3e
       0.18014897 -0.18098 -0.12547503 0.33969426
0001e0 2c 10 0f be bb 3d ad ba 98 e5 b1 bd 8c 2b 95 bd
       -0.13971013 -0.001321725 -0.0868637 -0.072836965
0001f0 0e 03 18 3e 8c e9 37 3d 1c 9a 1d be f5 fa 40 be
       0.14844915 0.044900462 -0.1539082 -0.18845733
000200 28 fc 2a be 13 15 4f be 07 e8 0a 3e 16 af f3 bd
       -0.16697752 -0.20222883 0.13565074 -0.11898629
000210 22 91 dd bd af 8c ab bd ce 6e 78 3e 42 6d a0 3d
       -0.108186975 -0.08376443 0.24261019 0.07833339
000220 cd 9e 51 3d fb 9f 89 be 64 08 8a ba 77 c5 79 3e
       0.051176835 -0.26879868 -0.0010531065 0.24391733
000230 9a e6 a6 bd 27 f0 8a be 7a 8a 2c be 33 ab cf bd
       -0.081494525 -0.27136347 -0.168497 -0.101400755
000240 6d 7c 95 3c 10 d5 1e 3e 72 1e 6e 3e 68 21 08 be
       0.018247807 0.15510964 0.23253801 -0.13293993
000250 8e c1 57 be f8 4f ff be 9f bb d7 3e 0d 17 c6 bd
       -0.21069929 -0.498657 0.4213533 -0.09672365
000260 09 33 eb bd ac 09 e8 bd 44 7e 51 3e d8 09 4d bd
       -0.114843436 -0.1132997 0.20458323 -0.050058216
000270 11 a5 30 be 70 03 98 bd 62 e5 99 be cd ec 04 3e
       -0.17250468 -0.07422531 -0.30057818 0.12980957
000280 5e 4b 0b 3e 55 55 ae be 59 3f 12 be f2 49 de 3d
       0.13602969 -0.34049478 -0.14281978 0.10853948
000290 cb 26 b3 3c 9f be 7c 3e 8f 47 81 3e 1c f4 70 bd
       0.021869084 0.24682091 0.25249907 -0.05882655
0002a0 6d 78 cb 3c 72 81 a1 3d 9c be 71 bd 78 0c 45 be
       0.024837697 0.07886018 -0.05901967 -0.19243038
0002b0 f1 5e e3 3d c9 11 3d 3d 87 9a 4b 3e 23 ba 90 be
       0.11102093 0.04615954 0.19883166 -0.2826701
0002c0 89 10 cf 3b 6c 43 22 be ae dc 5e bd d3 0d 26 be
       0.00631911 -0.15846032 -0.054409675 -0.16216211
0002d0 a2 25 ca bd dc 63 69 be 2c e9 58 bb 02 e7 91 bd
       -0.09870459 -0.22792 -0.0033097966 -0.07124139
0002e0 dd 82 f5 3d 2d e2 2c be 70 26 b8 bc 21 91 ef 3d
       0.11987851 -0.16883154 -0.022479266 0.11697603
0002f0 7e a6 8e 3e c8 fa 39 bd 03 14 d2 bc f8 34 fc 3d
       0.27861398 -0.04540518 -0.025644308 0.123147905
000300 a7 41 ec 3c 83 45 0e be 90 3b ae 3d d3 d5 1b bd
       0.0288399 -0.13893704 0.085074544 -0.038045716
000310 fd 80 31 3d 3c 93 09 3e dc 89 93 3d 7b 05 a9 3e
       0.043335903 0.13435072 0.07204029 0.33011994
000320 fa 65 44 3e 52 fa f1 3d cd ca 07 3e 29 e2 05 3e
       0.19179526 0.11815323 0.13260956 0.13074555
000330 16 62 37 3e 03 19 28 3e 6d 1e 3b be 8f b8 47 be
       0.1790851 0.16415791 -0.18273325 -0.19503997
000340 53 f8 b4 be ff 8a e0 be 9e 94 9f bd 37 a2 2e be
       -0.35345706 -0.43856046 -0.07792018 -0.17054068
000350 4e 94 90 3d 72 2e aa 3d 35 9a 38 3e b0 69 63 3d
       0.07059537 0.0830964 0.18027575 0.055520713
000360 bb 1b e0 bd 14 66 06 3d 9e fb 1f 3d 10 99 1e be
       -0.10942789 0.032812193 0.03905832 -0.15488076
000370 27 53 45 be 7f d1 58 3e e1 12 e0 bc 83 39 22 bd
       -0.19270001 0.21173666 -0.027352752 -0.03960563
000380 b1 7e f0 3b 19 55 6d be 9d ff 84 bd 96 39 3b 3e
       0.0073393215 -0.23176993 -0.06494067 0.18283686
000390 85 f7 2d be 9d 28 cf 3e 81 bf 59 bd 3f 01 e9 3d
       -0.16988952 0.40460673 -0.053161148 0.11377191
0003a0 bb 48 91 3e 17 1b 55 be 10 d3 c1 3e 8f aa dd 3c
       0.283758 -0.20811115 0.3785634 0.027058868
0003b0 0f e5 12 3d ce 05 fb 3d ac c4 b6 3e 46 3f 91 3d
       0.03586298 0.122569665 0.35696924 0.070921466
0003c0 ec 8d cc bd 9b e8 20 bc c2 be bd bc 67 2f b2 be
       -0.09988007 -0.009821082 -0.02316225 -0.3480179
0003d0 0b 2c 56 be fb 4a 36 bd 3e 1c 84 3e 27 53 65 3e
       -0.20915239 -0.0445051 0.25802797 0.22395001
0003e0 f5 89 d2 3e 4b 80 51 3d 0e 81 26 3e 88 ff f5 bd
       0.41120878 0.05114774 0.16260168 -0.12011629
0003f0 d2 86 45 bb 0b 65 44 3d 40 c1 89 3d fa 39 02 bd
       -0.0030140174 0.047947925 0.06726313 -0.031793572

fc3.bias f4 [32]
000000 00 00 00 00 00 00 00 00 00 00 00 00 00 00 00 00
       0.0 0.0 0.0 0.0
000010 00 00 00 00 00 00 00 00 00 00 00 00 00 00 00 00
       0.0 0.0 0.0 0.0
000020 00 00 00 00 00 00 00 00 00 00 00 00 00 00 00 00
       0.0 0.0 0.0 0.0
000030 00 00 00 00 00 00 00 00 00 00 00 00 00 00 00 00
       0.0 0.0 0.0 0.0
000040 00 00 00 00 00 00 00 00 00 00 00 00 00 00 00 00
       0.0 0.0 0.0 0.0
000050 00 00 00 00 00 00 00 00 00 00 00 00 00 00 00 00
       0.0 0.0 0.0 0.0
000060 00 00 00 00 00 00 00 00 00 00 00 00 00 00 00 00
       0.0 0.0 0.0 0.0
000070 00 00 00 00 00 00 00 00 00 00 00 00 00 00 00 00
       0.0 0.0 0.0 0.0

bn3.weight f4 [32]
000000 00 00 80 3f 00 00 80 3f 00 00 80 3f 00 00 80 3f
       1.0 1.0 1.0 1.0
000010 00 00 80 3f 00 00 80 3f 00 00 80 3f 00 00 80 3f
       1.0 1.0 1.0 1.0
000020 00 00 80 3f 00 00 80 3f 00 00 80 3f 00 00 80 3f
       1.0 1.0 1.0 1.0
000030 00 00 80 3f 00 00 80 3f 00 00 80 3f 00 00 80 3f
       1.0 1.0 1.0 1.0
000040 00 00 80 3f 00 00 80 3f 00 00 80 3f 00 00 80 3f
       1.0 1.0 1.0 1.0
000050 00 00 80 3f 00 00 80 3f 00 00 80 3f 00 00 80 3f
       1.0 1.0 1.0 1.0
000060 00 00 80 3f 00 00 80 3f 00 00 80 3f 00 00 80 3f
       1.0 1.0 1.0 1.0
000070 00 00 80 3f 00 00 80 3f 00 00 80 3f 00 00 80 3f
       1.0 1.0 1.0 1.0

fc4.weight f4 [16, 32]
000000 42 a0 4f 3e 4e 62 f8 bd 65 d7 d9 be b9 bc dc be
       0.20275977 -0.12128125 -0.42547145 -0.43112734
000010 62 00 8c 3d af c7 8f 3e bf ba 7f 3e 20 a4 29 bd
       0.068360105 0.28082034 0.24973582 -0.041416287
000020 03 58 85 bc 31 db 08 bd c7 49 9b be 6e 55 27 3e
       -0.016277319 -0.033412162 -0.30329725 0.16341183
000030 4c 61 8e bd 32 c9 8b bd bb db 67 be 0d 49 07 bd
       -0.06952152 -0.06825484 -0.22642414 -0.03302865
000040 06 6a d4 3b 35 07 9e bd f4 d0 b4 3d 92 75 13 3a
       0.0064823655 -0.077162184 0.08828917 0.00056251243
000050 e7 87 7b 3c b3 51 01 3e 84 0c ec 3d 31 3b 08 bf
       0.015352226 0.12628822 0.11525825 -0.5321532
000060 c7 3a 0d 3e 8e b3 ce 3d 9d c7 2c bd 44 93 07 be
       0.13791953 0.10092841 -0.042182554 -0.13239771
000070 b1 68 cb be d3 1e c6 3e 1e 9e 1c 3e 00 24 64 be
       -0.3972831 0.38695392 0.15294692 -0.22279358
000080 92 06 74 3e d0 e3 23 3e 19 02 09 be 1c 71 7b 3e
       0.23830631 0.16004872 -0.13379706 0.24554867
000090 29 62 ba 3c 27 9c 24 be de 26 0c bb d6 ad 6d bc
       0.022751885 -0.16075192 -0.0021385471 -0.014506778
0000a0 63 ea af 3e 7b 81 fb be de 58 c7 bd 32 87 3b bb
       0.3435851 -0.49122223 -0.09733747 -0.0028614518
0000b0 2f 45 9a 3d d9 b1 d9 be 6e 7b b6 bd 89 ca 35 bd
       0.07532727 -0.425185 -0.08910261 -0.044382606
0000c0 7b ec 9a be e1 85 99 3d d0 69 95 3e d7 63 49 be
       -0.30258545 0.074962385 0.2918229 -0.19666992
0000d0 33 ee 33 bc da b6 e8 bb c9 ca 95 3e e4 97 c1 3e
       -0.010982084 -0.0071018757 0.29256275 0.37811196
0000e0 83 6c 02 3e 20 e1 00 bf 10 8b 3d 3c 21 83 89 3e
       0.12736706 -0.50343513 0.0115688 0.26857856
0000f0 c6 08 9b 3d 61 e6 17 3e f8 2a d4 be 33 b3 1b be
       0.07570033 0.14833976 -0.41439033 -0.15205078
000100 f5 4e a5 bd 05 23 ca 3e 2a 60 f6 3d b8 58 f3 be
       -0.080717005 0.39479843 0.120300606 -0.47528625
000110 b7 e3 81 3d 0f ab 9d bd 35 ae 97 3d 23 7d a6 3e
       0.06342261 -0.076986425 0.07406274 0.32517347
000120 53 f0 07 3f 68 89 23 3d 51 a3 65 bd 87 3a 06 3e
       0.5310108 0.039925963 -0.056063954 0.13108264
000130 99 5c 90 3e 41 5e d1 3e 6a e2 0b 3f 12 f6 28 3d
       0.28195646 0.40892223 0.54642355 0.041250296
000140 80 71 23 be 70 05 0d 3e f1 53 d4 3d 91 d5 b8 3d
       -0.15961266 0.13771605 0.10367573 0.090251096
000150 72 fd a9 3e 9e e3 c5 3d 11 45 06 be af 6d bc be
       0.33201176 0.09662555 -0.13112284 -0.36802432
000160 e7 75 90 3e ab 83 42 3e 32 c5 25 bf 67 c2 95 bb
       0.28214952 0.1899554 -0.6475402 -0.0045702937
000170 3c 42 90 be c4 d4 b1 be 3c 00 48 3e 93 c1 e7 3e
       -0.28175533 -0.3473264 0.1953134 0.45264873
000180 6a 66 40 3e 0f 1e 8d 3e 5b ec 8a 3e 14 35 87 3e
       0.18789068 0.27561995 0.2713345 0.26407683
000190 b1 96 6c bd 74 72 02 bf c6 95 2c bd 2e f2 44 bd
       -0.057760898 -0.5095589 -0.042135023 -0.048082523
0001a0 88 e2 82 bd d7 85 32 3d b3 24 66 be 68 9f ec 3e
       -0.06390864 0.04358467 -0.22474937 0.46215367
0001b0 24 eb 71 be 86 c5 eb 3c 42 ee cc 3e e0 06 6e bc
       -0.23624855 0.02878071 0.40025526 -0.014528006
0001c0 5e f4 aa be 0f 04 ef bd 91 29 b0 bd 68 be 9d bc
       -0.33389562 -0.11670696 -0.08601678 -0.019255832
0001d0 4f 14 8a 3d f6 17 da 3e c2 7f 0e 3f 7c 91 81 bb
       0.06742155 0.42596406 0.5566369 -0.0039541107
0001e0 a2 ab 21 be ea 93 3f bd e2 51 d0 bb e7 5e 22 be
       -0.15788129 -0.04677192 -0.0063574174 -0.15856515
0001f0 84 9c 2a bd 71 53 59 3e b7 81 df be cc 85 41 bd
       -0.04165317 0.21223237 -0.43653652 -0.04724674
000200 77 ec 22 be 4e a8 7b 3e b5 4a 72 bd 5d 39 b6 3d
       -0.15910517 0.24575922 -0.059153277 0.0889766
000210 c4 7c aa be 97 b5 05 3e 8d 66 97 be 00 cf c2 be
       -0.33298314 0.13057552 -0.29570428 -0.38048553
000220 0e 46 34 3e 68 1f 9a be 81 a4 1a bd ba e7 c4 3d
       0.17604849 -0.30102086 -0.03775454 0.09614511
000230 b9 cc b8 3d ed c4 f5 3d c4 36 9c bd c0 e4 7a 3e
       0.09023423 0.12000451 -0.07627633 0.24501324
000240 53 2a 8a 3d 95 45 e7 3d af ee 40 bd 99 79 56 3d
       0.06746354 0.112925686 -0.047102626 0.05236206
000250 65 6c 54 3d 22 09 ec bd b9 c7 c1 be 8f c7 2e be
       0.051861186 -0.115251794 -0.3784769 -0.17068313
000260 52 da 5b 3e 9c a0 40 3e f6 b7 74 3e 93 40 b3 be
       0.21470001 0.18811268 0.238983 -0.35010204
000270 39 d2 f6 bd 2c 62 8e 3e 49 28 10 be de 3e e0 3e
       -0.120518155 0.27809274 -0.14077868 0.43797964
000280 66 a6 e3 3c a9 28 23 be b7 88 63 3d 57 61 66 3d
       0.027789306 -0.1593348 0.055550303 0.056245174
000290 6f 5c d4 be 29 7b 28 3e 50 16 a0 3e 1c eb ba bd
       -0.4147677 0.16453232 0.31267023 -0.09126875
0002a0 2d f4 88 3d eb 8c 16 bd fc 7b 23 bd 51 8f b5 bc
       0.06687198 -0.036755484 -0.039913163 -0.022163065
0002b0 54 10 6b 3e 5e 36 b5 3e f1 d0 a4 3e c0 2c 98 3e
       0.22955447 0.3539304 0.3219066 0.29721642
0002c0 62 66 5a bd 40 70 2f bc 63 e1 b6 be 0d e3 73 3d
       -0.053320296 -0.010707915 -0.3571883 0.059542704
0002d0 4c b8 10 3f 54 a1 11 3f 63 e7 5d be b4 47 19 be
       0.56531215 0.5688679 -0.21670298 -0.14968759
0002e0 26 03 b8 3d 93 ce 60 3e dc 5a a9 3d d7 a5 a6 3e
       0.089849755 0.21953802 0.08269283 0.325484
0002f0 9c 0b d8 bc a3 e5 e0 be 6e 5f 16 3d eb 62 8a 3e
       -0.026372723 -0.439252 0.036712103 0.27028593
000300 a9 bf 8c 3d 4f 6b 9c be 57 bd 43 3e 0a c4 4d 3d
       0.06872494 -0.3055062 0.19115196 0.050235786
000310 d1 6d 1a be ae 62 d0 3e b4 81 d1 bd 74 e8 d6 3e
       -0.15080954 0.40700287 -0.10229817 0.41974223
000320 d9 ec cd be c6 d6 66 3e 50 2a 90 be 25 c0 85 3e
       -0.40219763 0.22542867 -0.28157282 0.26123157
000330 fd 2b 8b be 72 20 2b 3e 17 91 25 3d d9 72 9c 3e
       -0.27181998 0.16711596 0.04042157 0.30556372
000340 49 b1 19 3e 6a 6a 80 3e 55 1f 42 3c cc 7f 4b be
       0.15009035 0.25081187 0.01184829 -0.1987297
000350 02 d2 94 be 6d 84 84 be 77 9f 15 3d 89 c2 90 3e
       -0.29066473 -0.25882283 0.03652903 0.2827342
000360 a2 0d 3f 3e 90 ff 81 be 03 83 09 3d 6f 4f 00 3e
       0.18657544 -0.2539029 0.033572208 0.12530302
000370 74 59 81 be ff 8f ee bd d5 d7 69 be 56 5e b2 be
       -0.2526356 -0.11648559 -0.2283624 -0.34837598
000380 f9 35 3c be 00 5d d2 bd ce 2b 1b 3f 84 88 94 3e
       -0.18379964 -0.102716446 0.60613716 0.29010403
000390 ea 47 ce 3d e2 89 99 bd 5f 49 fb bd 80 fa ff 3d
       0.1007231 -0.07497002 -0.12269854 0.12498951
0003a0 42 c3 17 3d cd 26 1f be d4 87 eb 3e c1 f3 15 be
       0.037051447 -0.15542145 0.46002066 -0.14643766
0003b0 21 da 11 3e 7b 0e 69 be 28 2c 79 bd b3 7c 3a bd
       0.14243366 -0.2275943 -0.060833126 -0.04552908
0003c0 5f f0 93 3e 2c fe 1f be 09 29 d5 bd fb af 3e be
       0.28894326 -0.15624303 -0.104082175 -0.18621819
0003d0 d1 dd 15 3e 95 99 6e be d7 fe 10 bd 24 ec ea be
       0.14635397 -0.23300774 -0.035399284 -0.45883286
0003e0 38 43 1d 3e 32 49 57 bd 92 6c 07 bf 54 77 18 3f
       0.15357673 -0.05256004 -0.5290004 0.5955708
0003f0 14 5e 7d bd cd 28 fb bd 89 30 17 bd b0 c3 8a 3d
       -0.061857298 -0.122636415 -0.03691152 0.06775606

fc4.bias f4 [16]
000000 00 00 00 00 00 00 00 00 00 00 00 00 00 00 00 00
       0.0 0.0 0.0 0.0
000010 00 00 00 00 00 00 00 00 00 00 00 00 00 00 00 00
       0.0 0.0 0.0 0.0
000020 00 00 00 00 00 00 00 00 00 00 00 00 00 00 00 00
       0.0 0.0 0.0 0.0
000030 00 00 00 00 00 00 00 00 00 00 00 00 00 00 00 00
       0.0 0.0 0.0 0.0

bn4.weight f4 [16]
000000 00 00 80 3f 00 00 80 3f 00 00 80 3f 00 00 80 3f
       1.0 1.0 1.0 1.0
000010 00 00 80 3f 00 00 80 3f 00 00 80 3f 00 00 80 3f
       1.0 1.0 1.0 1.0
000020 00 00 80 3f 00 00 80 3f 00 00 80 3f 00 00 80 3f
       1.0 1.0 1.0 1.0
000030 00 00 80 3f 00 00 80 3f 00 00 80 3f 00 00 80 3f
       1.0 1.0 1.0 1.0

out.weight f4 [2, 16]
000000 dc 57 c6 3d 54 79 7f be fc a7 fa bd 30 0f 00 be
       0.096847266 -0.24948627 -0.12239072 -0.12505794
000010 f0 16 80 3d 5c 1d a9 bd 48 30 05 bd 28 ff 99 3d
       0.06254375 -0.08257553 -0.032516748 0.0751937
000020 94 b0 4f 3e 32 37 27 3e f0 50 07 be 00 e9 2f 3b
       0.20282203 0.16329649 -0.13214469 0.002684176
000030 00 cb a9 3b a0 fa 4d bc e0 b2 82 bd f8 c0 af bd
       0.00518167 -0.012571961 -0.06381774 -0.08581728
000040 76 40 15 3e 40 20 68 3c 80 7a 53 3b 04 a8 2e 3e
       0.14575371 0.014167845 0.003226906 0.1705628
000050 52 61 42 be 68 af e7 3d d0 53 7d bd c0 8c 62 3c
       -0.18982437 0.11312753 -0.061847508 0.013827503
000060 4e 67 06 3e 5c ac ff bd 3a 91 6b be 7a e3 4f be
       0.13125345 -0.12484047 -0.23004618 -0.20301619
000070 90 e2 76 3d d2 e1 12 be a8 49 82 bd 24 52 84 3d
       0.06027466 -0.14343956 -0.06361705 0.064609796

out.bias f4 [2]
000000 28 6d 08 3d 08 05 16 be
       0.033307225 -0.14650357
