dags/spark_job/landslide_identification_model.pth (torch, 131594 bytes, 26 tensors)

fc1.weight f4 [128, 144]
000000 3b 94 6f bc c4 2a 12 bd 52 91 f4 3c d5 a3 28 bd
       -0.014622743 -0.035685316 0.02985445 -0.041171867
000010 bb 79 74 bd 16 ad 63 be 91 8e e9 bd 72 f0 63 be
       -0.059686404 -0.22233996 -0.114041455 -0.22259691
000020 a5 cf a4 bd c7 7b a2 3c d3 51 91 3c ae 30 85 3e
       -0.080474176 0.019834412 0.017739212 0.26013702
000030 d2 2b 60 3b 1f 16 58 be be 33 8d 3e 70 d7 83 bd
       0.0034205806 -0.21102189 0.2757854 -0.06437576
000040 03 2a 83 3d 64 1a 68 be 1b 69 b6 3d e2 87 9c be
       0.064044975 -0.22666317 0.08906766 -0.3057242
000050 82 c2 51 bc 33 e2 28 bd 30 30 30 3e ec 59 5d 3e
       -0.012802722 -0.041231345 0.17205882 0.21616334
000060 56 27 ee bc 2c b9 42 3d a1 14 02 3c 75 50 4a be
       -0.029071491 0.047539875 0.007939489 -0.19757254
000070 dc c7 c7 bd 54 ed d8 3d 61 fc 5f 39 91 f6 66 3d
       -0.09754917 0.10592142 0.00021360956 0.056387488
000080 7a b9 a6 bc 26 5e 52 be ec 87 ae bd 2d 03 cb bd
       -0.020352114 -0.20543727 -0.08522019 -0.09912715
000090 9f 8f a0 bd 5c e2 1f be 87 e2 b4 3b b0 57 45 bb
       -0.078398935 -0.15613693 0.005520168 -0.003011208
0000a0 b2 29 ce bd 9d 18 0c 3e 93 e4 f1 3d 27 52 df bc
       -0.100665465 0.13681264 0.11811175 -0.027260853
0000b0 bb 71 42 bc b1 96 02 3d 8f 50 7c be d1 96 79 3e
       -0.011867936 0.03188199 -0.24640106 0.24373938
0000c0 83 30 81 bd 8e 1e 64 3d 39 00 07 3d 35 83 0a bd
       -0.06308081 0.0556932 0.032959197 -0.033816535
0000d0 22 14 3e be 37 e0 09 3e 96 00 9a bd 6d c7 66 be
       -0.18562368 0.13464437 -0.07519643 -0.22537012
0000e0 91 e2 26 bc d6 04 3d bc 8d 16 af bc 56 44 f1 bc
       -0.010185854 -0.0115367975 -0.021373058 -0.02945153
0000f0 cd f6 0d be 3d 17 19 3e 09 95 10 3e 3b 98 7a bb
       -0.13863678 0.14950271 0.14119352 -0.003823771
000100 3f 8e 2b 3c 00 48 a0 bd 62 e7 0d 3e 95 16 5c bb
       0.010470926 -0.07826233 0.13857797 -0.0033582796
000110 3f be 0d 3e 31 82 24 be ac 04 52 3d ef ab b8 3c
       0.13842104 -0.16065289 0.051273987 0.022542922
000120 c6 65 6c bd af ad 7a bd 08 97 70 bd 2b 47 82 bc
       -0.057714246 -0.061200794 -0.058737785 -0.015903076
000130 96 79 aa 3b 00 c6 9b be e2 c1 a8 bd e4 0c 43 be
       0.0052024825 -0.304245 -0.08240105 -0.19047886
000140 45 e6 22 bd cc 95 0d be 03 6d 63 be a8 da 35 bc
       -0.039770383 -0.13826674 -0.22209553 -0.011099495
000150 73 12 64 be 09 d8 98 3d d3 b6 bc 3b be 83 71 3d
       -0.22272663 0.074630804 0.005759099 0.05896353
000160 8a 9c 18 bc 2c bf 10 be 62 0e 28 3b e6 88 2c bc
       -0.009314666 -0.14135426 0.0025643338 -0.010530686
000170 62 81 8c bd 99 f5 51 3e 8a 14 16 be fd 0e c5 bd
       -0.06860615 0.20503844 -0.14656273 -0.096219994
000180 8d ab 90 bb 69 5d da bd 9a 5f a5 bd 12 d0 65 be
       -0.0044149817 -0.10662348 -0.08074875 -0.22442654
000190 fb f8 a1 3b 75 0a f7 bb 2b 3f 0a bc 21 fa cc bd
       0.004943011 -0.0075390884 -0.008437912 -0.10008646
0001a0 b6 b6 d0 3c 9b ae b6 3d d5 36 62 bd ba aa 0e be
       0.025477748 0.08920022 -0.055228073 -0.13932315
0001b0 4d f9 28 bd 46 85 8c be 1c 69 02 3d 04 22 53 3d
       -0.041253377 -0.2744543 0.03183852 0.05154611
0001c0 d5 e4 2c be 2a d7 98 3d d9 c9 c3 3d 00 7d b3 bc
       -0.16884167 0.07462914 0.09559984 -0.02191019
0001d0 19 10 ca 3e 85 78 0a 3d 03 7d 0e 3e 91 b9 7f 3d
       0.39465407 0.033806343 0.13914876 0.06243283
0001e0 02 c1 c3 3d 80 66 63 bc ba 88 d7 3d 26 02 58 3d
       0.09558298 -0.013879418 0.105241254 0.052736424
0001f0 4d f4 52 3d ba f7 66 be 64 bc ae 3d 20 63 42 3c
       0.051502515 -0.22555438 0.085320264 0.011864454
000200 62 9a 28 3e 4c 8d 46 3c 5d c3 f8 3c 40 88 39 bd
       0.16465142 0.012118649 0.030366594 -0.045295954
000210 5b df 53 3d bf 3a 95 3d 1c 10 8e bd f6 b8 f9 bd
       0.05172668 0.072865956 -0.06936666 -0.121934816
000220 9a ab 7b bd 11 05 99 3e 0f b5 b5 3d e5 dd 8b bd
       -0.06144295 0.29886678 0.08872425 -0.068294324
000230 15 44 02 3e 27 ea 03 3d 72 d5 c7 bd 89 f7 f1 3c
       0.12721284 0.032205727 -0.09757508 0.02953698
000240 57 dc 22 be c9 8e b3 3d 0c 4c 07 3e 2e d5 80 be
       -0.15904365 0.087674685 0.13212603 -0.25162643
000250 4d 13 9f bd 2f 8c 02 bc ed 43 e0 3d 07 30 0a be
       -0.07767353 -0.007967993 0.10950456 -0.13494883
000260 93 4f 0f be fa f7 50 bd fd d5 5c 3d 6b 55 71 3d
       -0.13995199 -0.05101774 0.053915013 0.05891935
000270 a1 69 09 bd 95 83 0c 3e ad 7c 24 3e 5d 6f 81 3e
       -0.033548 0.1372207 0.16063185 0.25280276
000280 b9 ef e0 bc e8 08 1c bd 5d 22 c3 3d db e1 46 3d
       -0.027458059 -0.03809443 0.09528039 0.048555236
000290 81 5a c1 3d cf 44 d1 3b b9 43 42 bc d4 15 8f 3d
       0.094410904 0.0063863765 -0.011856967 0.06986585
0002a0 b0 57 b1 3d ed c6 4a bc d1 a6 37 3e f4 d9 ae 3d
       0.08659303 -0.012376529 0.17934729 0.08537665
0002b0 46 6d 97 bb d9 69 0c bd a8 84 a6 3d 50 fb 64 3e
       -0.0046211807 -0.03428063 0.08130771 0.22361493
0002c0 21 09 be 3d ed e2 81 bc c8 3d 04 be 94 2e fb 3c
       0.09279085 -0.015855277 -0.12914193 0.030661859
0002d0 31 3c 5c bc 63 b6 75 bd 8a 11 42 bc cb f2 68 3d
       -0.013442085 -0.05998839 -0.011845002 0.05687217
0002e0 6c c6 e7 3b c4 4a 17 3d 9b e9 fc 3d 7c 1b 07 be
       0.0070732143 0.036936536 0.12349244 -0.13194078
0002f0 e6 8d d3 3d 30 8e 79 bb f9 59 66 3e 61 13 c8 bc
       0.10329799 -0.0038079135 0.2249526 -0.024423303
000300 f8 57 70 3d b0 77 33 3e 25 ae ee 3d ef 86 b9 bc
       0.058677644 0.17526126 0.11654309 -0.02264735
000310 cf 23 18 be 6e 2b d9 3c db 8b cd 3d d1 df 01 3c
       -0.1485741 0.026509967 0.10036441 0.007926897
000320 e5 a9 2a bd cf ee ab 3c bd 14 d4 3b 73 e5 15 bd
       -0.04166593 0.020987896 0.0064721988 -0.036595773
000330 a1 f5 48 3d 42 ea cd bd 92 26 41 bd bb 28 14 3d
       0.049062375 -0.10054447 -0.047155924 0.036171656
000340 62 ff 68 3e 3c de df 3d 20 02 10 3c 19 53 be bd
       0.22753671 0.1093106 0.008789569 -0.09293193
000350 2e 7a 54 3d 6a bf ca bd 8e a3 00 3e 31 33 46 be
       0.051874332 -0.098997906 0.12562391 -0.19355465
000360 0d 2b bc 3d 3e 17 54 3e fb 6d a8 3c 93 93 9e bd
       0.09187899 0.20711991 0.020560255 -0.07742991
000370 70 e7 64 3b c2 d7 43 3d 5c eb c1 bd f3 c5 bc 3c
       0.0034927987 0.047813185 -0.09468719 0.023043608
000380 6f 94 3b bd bb a6 e7 bd 72 32 81 be e3 f0 92 bd
       -0.045795854 -0.11311098 -0.252338 -0.07174852
000390 35 73 6f 3c 0d 04 2d 3e 90 74 a0 bd 54 19 19 be
       0.01461487 0.16896077 -0.078347325 -0.14951068
0003a0 de b9 56 be 5a 5a 9c 3c b5 24 89 bd bd 4b 01 bd
       -0.2096934 0.019086052 -0.066964544 -0.03156637
0003b0 6a 02 48 3e d5 92 19 3e a2 16 26 3b 65 3e 91 bd
       0.19532171 0.14997418 0.002534308 -0.07091979
0003c0 4a fc 16 be bc 8d a4 3d 7a 0c 62 be b6 ca 0e 3e
       -0.14744678 0.08034846 -0.22075072 0.13944516
0003d0 9a 76 3c bd ba fb d0 3d 65 a9 44 be b6 89 05 3e
       -0.046011545 0.10204263 -0.19205244 0.13040814
0003e0 4c b9 2c 3d d3 7e 34 3e bb b7 dc 3d 3a 42 95 bd
       0.0421689 0.17626505 0.10777231 -0.07288022
0003f0 86 b4 72 bd 8a 91 e1 bd 98 b5 24 3e 28 96 25 3e
       -0.05925419 -0.110140875 0.16084898 0.16170561

fc1.bias f4 [128]
000000 00 00 00 00 ca 31 63 bc ec 3c 9d bc 91 e3 a8 3c
       0.0 -0.013866851 -0.019194089 0.020616325
000010 b6 5f 4c 3c a4 c1 81 ba 00 00 00 00 57 e0 0d 3a
       0.012473991 -0.0009899628 0.0 0.00054121524
000020 2b 8b c4 bb 6a fb f4 3a b6 6c 97 bc b4 a0 02 bc
       -0.0059980354 0.001869065 -0.018484455 -0.007972885
000030 f8 77 fd bb c4 86 40 3c 66 96 6b 3b 00 00 00 00
       -0.0077352487 0.011750881 0.0035947799 0.0
000040 0d c3 cc bb 00 00 00 00 00 00 00 00 82 80 07 bd
       -0.006248838 0.0 0.0 -0.03308154
000050 b4 f4 9e bc 2e 58 42 bd d1 5b e2 bc e2 26 c2 bb
       -0.019403793 -0.047447376 -0.027631672 -0.0059250453
000060 f9 86 0c 3b 00 00 00 00 9e 2f fc 3a 71 ad 80 3a
       0.0021442755 0.0 0.0019240265 0.0009817315
000070 ad 65 e9 bb 14 66 46 bb 55 c2 e1 3b 2e af 4f 3c
       -0.0071227164 -0.0030273246 0.0068896213 0.012676043
000080 f8 b0 a4 bc 52 2e b2 bb 6a 21 8e 3c 00 00 00 00
       -0.020103917 -0.0054376507 0.017349917 0.0
000090 00 00 00 00 28 22 0e bd 44 42 2f bc 00 00 00 00
       0.0 -0.034700543 -0.010696951 0.0
0000a0 41 9f ed 3b 4e 32 79 3d 3e 7e 95 3a ce 57 1e 3c
       0.0072516506 0.06083899 0.0011405421 0.009664489
0000b0 ff 1c c9 bb 00 00 00 00 20 e1 e0 ba 42 32 2e 3c
       -0.00613749 0.0 -0.0017156936 0.0106321
0000c0 56 a3 0a bd b4 2d a8 bc 77 b6 4a bc a7 85 85 bc
       -0.033847176 -0.020529605 -0.012372605 -0.016299082
0000d0 91 62 c2 bb 4a 47 9c bb 00 00 00 00 00 00 00 00
       -0.00593216 -0.0047692405 0.0 0.0
0000e0 94 e6 8d bd 39 e3 01 bb e7 9b c8 bd d9 22 5f bc
       -0.06928745 -0.0019819273 -0.09795361 -0.013619148
0000f0 d8 58 ac 3a a1 89 40 bd 5e 60 1b b8 00 00 00 00
       0.0013149036 -0.047006253 -3.704463e-05 0.0
000100 39 a0 38 bd e0 86 a1 3b f5 2b 11 bc 90 a6 49 3c
       -0.045074675 0.0049294084 -0.008860578 0.012307778
000110 e3 02 13 bd a8 d6 44 bc b9 7c 96 bd 00 00 00 00
       -0.035891425 -0.012014069 -0.07348008 0.0
000120 66 df 27 bc fa 2f f5 3b e0 95 16 3d 83 84 c1 3c
       -0.010246133 0.007482526 0.036764026 0.023622757
000130 29 98 8d 3b 00 00 00 00 b4 e1 9b 3b 8f 94 bb bb
       0.0043211174 0.0 0.0047571305 -0.0057244967
000140 e6 14 92 bb 72 ca bb 3c 92 38 38 3c 00 00 00 00
       -0.0044580577 0.022923682 0.011243956 0.0
000150 cd f1 2a bc a8 fb 2a bb d3 8b 13 bd 31 bb 1a bc
       -0.010433626 -0.002608994 -0.03602202 -0.009444044
000160 13 d6 b0 bb 70 57 67 3c 7f fa 88 bc 25 f8 09 bc
       -0.0053966134 0.014119968 -0.016721008 -0.008420979
000170 e1 7e 7d bb 60 80 9d bb c1 c4 b5 3b 3b 6e 09 bc
       -0.0038680362 -0.0048065633 0.0055471365 -0.008388097
000180 00 00 00 00 24 93 ee bc 00 00 00 00 7f c9 8a bb
       0.0 -0.029122896 0.0 -0.004235446
000190 49 13 92 3b f7 0e 96 3c 52 57 a9 3a 52 2a de bc
       0.0044578654 0.018317683 0.00129197 -0.02711979
0001a0 a4 26 61 3c 45 10 52 3b 28 ee 3f bb 79 2d 3d 3c
       0.013742123 0.0032053154 -0.002928624 0.011546486
0001b0 06 97 9e 3b 3c f7 10 3b 26 ab 59 3b f8 e5 e4 3c
       0.0048397807 0.002212002 0.0033213585 0.027941689
0001c0 00 00 00 00 3d 91 ba 3b 9b d9 10 bc 06 49 b1 3b
       0.0 0.0056935833 -0.008840944 0.0054103164
0001d0 13 67 0f 3c be 1a b3 bb 00 00 00 00 6c 7d 82 bb
       0.008752602 -0.0054658344 0.0 -0.0039822366
0001e0 be 5e 9f ba 51 c1 b2 ba 00 00 00 00 8f ec 1f bc
       -0.0012158973 -0.0013637935 0.0 -0.00976099
0001f0 57 0c 0d bc 00 00 00 00 cd 48 95 bc 87 1e 69 bc
       -0.008608899 0.0 -0.01822319 -0.01422847

bn1.weight f4 [128]
000000 00 00 80 3f bf 58 7c 3f 56 e8 80 3f af 4e 6e 3f
       1.0 0.98572916 1.0070903 0.9308881
000010 30 31 7c 3f 0d 12 7a 3f 00 00 80 3f 7a 97 80 3f
       0.98512554 0.97683793 1.0 1.0046227
000020 10 a0 7a 3f 82 41 7a 3f b2 3b 81 3f 92 67 82 3f
       0.97900486 0.97756207 1.0096343 1.0187857
000030 a8 28 80 3f a8 71 7a 3f 02 02 7c 3f 00 00 80 3f
       1.0012407 0.97829676 0.98440564 1.0
000040 ca 7d 80 3f 00 00 80 3f 00 00 80 3f d9 8d 81 3f
       1.0038388 1.0 1.0 1.0121413
000050 f8 5b 81 3f 6c 63 82 3f b7 c6 77 3f e2 b1 78 3f
       1.0106192 1.0186591 0.9678759 0.9714643
000060 46 b5 79 3f 00 00 80 3f a0 a8 82 3f 1c 3d 83 3f
       0.97542226 1.0 1.020771 1.0253024
000070 b2 38 84 3f 6e 5c 7f 3f da 5f 83 3f a3 a6 83 3f
       1.0329802 0.9975041 1.0263627 1.0285228
000080 d5 e0 7b 3f 99 5c 7e 3f cd 20 7e 3f 00 00 80 3f
       0.9838994 0.9936004 0.992688 1.0
000090 00 00 80 3f 56 c1 83 3f 3f d6 7d 3f 00 00 80 3f
       1.0 1.0293376 0.9915504 1.0
0000a0 c1 cf 83 3f 87 25 80 3f 68 51 83 3f 74 08 80 3f
       1.0297776 1.0011452 1.0259218 1.000258
0000b0 1c 61 7e 3f 00 00 80 3f bf 3e 81 3f c5 2b 7f 3f
       0.9936693 1.0 1.0097274 0.9967616
0000c0 99 42 7f 3f 5e 3a 83 3f b2 13 80 3f ed cf 82 3f
       0.99710995 1.0252187 1.000601 1.0219704
0000d0 ab 1c 76 3f 6c f6 83 3f 00 00 80 3f 00 00 80 3f
       0.96137494 1.0309577 1.0 1.0
0000e0 e4 fd 83 3f 37 d0 87 3f 0f 53 7d 3f a0 0c 77 3f
       1.0311856 1.0610417 0.9895486 0.9650364
0000f0 e4 a1 8b 3f 07 c0 7e 3f 69 3a 7d 3f 00 00 80 3f
       1.090878 0.9951176 0.9891725 1.0
000100 1d e7 80 3f 60 47 89 3f c2 0a 7d 3f e3 4c 83 3f
       1.007053 1.0724907 0.9884454 1.0257839
000110 10 d0 7b 3f 31 7e 7a 3f 1b 49 83 3f 00 00 80 3f
       0.98364353 0.978488 1.0256685 1.0
000120 d3 e1 7e 3f 10 94 81 3f 03 8d 80 3f 6e 07 82 3f
       0.9956333 1.012331 1.0043033 1.0158517
000130 bd 05 82 3f 00 00 80 3f 1f 8d 85 3f 26 c8 7b 3f
       1.0158001 1.0 1.0433692 0.9835228
000140 5c 1f 81 3f 70 7d 83 3f 0c b5 84 3f 00 00 80 3f
       1.0087695 1.0272655 1.0367751 1.0
000150 32 4d 80 3f 59 47 80 3f ef 70 7f 3f f2 89 81 3f
       1.0023558 1.0021774 0.997817 1.0120223
000160 2f ba 81 3f 56 83 7b 3f 15 a3 7c 3f 81 02 73 3f
       1.0134944 0.9824728 0.98686343 0.94925696
000170 9d f6 7a 3f 2f 2e 80 3f 15 a7 79 3f 80 3c 80 3f
       0.9803255 1.0014094 0.9752057 1.0018463
000180 00 00 80 3f fd d3 76 3f 00 00 80 3f e2 13 7f 3f
       1.0 0.9641722 1.0 0.99639714
000190 32 8d 76 3f 32 b6 80 3f 8e 7d 82 3f cf 33 7c 3f
       0.96309197 1.0055602 1.0194566 0.98516554
0001a0 f9 8f 6f 3f ba a2 79 3f 63 4b 7d 3f 7c 32 7b 3f
       0.9357906 0.97513926 0.98943156 0.9812391
0001b0 78 28 7f 3f 9d 39 83 3f 37 f1 7d 3f 4f b9 79 3f
       0.99671125 1.0251957 0.9919619 0.97548383
0001c0 00 00 80 3f ba fe 7f 3f 73 aa 7d 3f e9 70 83 3f
       1.0 0.99998057 0.9908821 1.0268832
0001d0 e4 89 72 3f cf 3c 7b 3f 00 00 80 3f 29 ec 83 3f
       0.94741654 0.9813966 1.0 1.0306445
0001e0 4f 97 7c 3f 22 65 82 3f 00 00 80 3f eb 22 77 3f
       0.9866838 1.0187113 1.0 0.96537656
0001f0 71 a0 81 3f 00 00 80 3f 67 af 7d 3f 02 9d 7d 3f
       1.0127088 1.0 0.9909577 0.990677

bn1.bias f4 [128]
000000 67 71 7a bc 83 22 d2 bb a6 b9 ca bc af a9 a3 bc
       -0.015285826 -0.0064128055 -0.024746727 -0.019978372
000010 de d7 8c 3c ab 8b b9 bc 41 72 9f bd 1f d4 05 bd
       0.017192777 -0.022649607 -0.07785464 -0.032672998
000020 ef cd c7 3b 90 fe cf bc 66 b7 09 3c c9 63 81 bb
       0.0060975472 -0.02538994 0.008405542 -0.003948663
000030 67 c6 27 3d b3 d7 4b bd 7f 78 38 3c 85 0f d5 bc
       0.040960696 -0.049766254 0.011259197 -0.026008377
000040 96 da 8c 3d 69 0a aa bb 7d 77 07 3d 0d 7a e5 bc
       0.068776295 -0.0051892293 0.033072937 -0.0280123
000050 f6 52 da 3b 09 6e 0f bd 42 ba d2 bc 2c 25 c6 bc
       0.0066627217 -0.035017047 -0.02572358 -0.024187647
000060 2c 18 61 3d 56 7f f6 bc 69 72 72 bd 1f dd 34 3d
       0.054954693 -0.030090015 -0.05919114 0.04415619
000070 30 03 06 bc 8e 1c a0 bc dc 34 d2 3c ca f7 16 3c
       -0.008179471 -0.019544866 0.025659971 0.009214351
000080 01 27 11 3d 51 0b 04 3c f6 db 06 3d b2 99 17 3d
       0.035437588 0.008059339 0.032924615 0.03701181
000090 7e e8 c1 bd 21 4f 77 bd 75 f6 09 bd 94 3d b5 bc
       -0.094681725 -0.060378198 -0.033682305 -0.02212409
0000a0 40 23 90 39 39 ee d0 bc 6b 3e 5c 3c de 3e 06 bd
       0.00027492084 -0.025504218 0.013442616 -0.0327748
0000b0 29 4b 2b 3d 4e 20 f0 3c c7 1f 29 bd 37 95 23 bb
       0.041819725 0.02931228 -0.04129007 -0.0024960765
0000c0 c4 a2 50 bc ff 93 eb bc e0 e9 34 bc e9 e8 78 bd
       -0.012734119 -0.028757093 -0.011042088 -0.060768995
0000d0 05 42 f2 bb f4 3b cc bc 63 8e 5f bd ea c9 c9 bc
       -0.007393124 -0.024930932 -0.05457915 -0.024632413
0000e0 63 fd f3 bc ac 61 55 3c b4 67 d6 3c 03 14 9d 3c
       -0.02978391 0.013023775 0.026172496 0.019174581
0000f0 6b 65 cb bb c9 60 5f bd a5 a4 18 bd 79 2d e6 3c
       -0.0062071583 -0.05453566 -0.037266392 0.028097855
000100 12 27 73 bd cc 36 07 3d 44 38 07 bd 37 b7 09 bd
       -0.059363432 0.033011243 -0.033012643 -0.033621993
000110 f0 69 75 bc 26 45 68 bc cf 49 39 bd 98 b0 8d bd
       -0.014978871 -0.0141766425 -0.045236405 -0.06918448
000120 cd 60 95 3d a0 85 92 bd 1b ca cf bb 96 0c df 3a
       0.07293854 -0.07154393 -0.0063412315 0.0017017301
000130 d6 a8 e4 3c 87 4d d4 3d 5f df 96 3d 12 8f 21 bd
       0.027912538 0.1036635 0.073668234 -0.039443083
000140 a3 6d f6 3c c0 23 ce 3c 00 e7 2d 3d e1 92 97 3d
       0.030081576 0.025163531 0.042456627 0.07401062
000150 bd 81 c7 bc 2d 35 a3 bc 8f ad ea 3c bf c0 dc 3b
       -0.024353856 -0.019922817 0.028647212 0.0067368443
000160 d6 b0 81 bc d0 7c 8d 3d 86 0d df 3c ca 6c a2 3c
       -0.015831392 0.06908572 0.027228128 0.019827265
000170 d7 c5 8b b9 66 9b 35 3d c7 7a 42 3c 3a 35 36 bb
       -0.00026659548 0.044337653 0.011870093 -0.0027802722
000180 2b 6a 8b bc 7d 22 c2 bc 0f ff 33 3d 83 5f bf 3c
       -0.017018398 -0.023698086 0.043944415 0.023360973
000190 04 c4 17 3c 1c c0 ac bc 51 05 19 bd e5 4f ef bc
       0.009263042 -0.021087699 -0.037358586 -0.029212901
0001a0 8e e3 15 bd 30 68 e5 bc 20 a7 f8 bc 88 e4 b8 bc
       -0.036593966 -0.028003782 -0.030353129 -0.02256991
0001b0 b7 ab 2a bb d5 b9 68 bd 0c c5 a8 3c 4f bc 28 3d
       -0.0026042291 -0.05681785 0.020601772 0.04119521
0001c0 77 6a 2a 3b d1 82 82 bd 5a 04 1b bd 01 ae 82 3c
       0.00260034 -0.063726075 -0.037845947 0.015952112
0001d0 a7 dc 20 bd 02 18 e6 3c cf 46 98 bc 3c ab 0b bc
       -0.03927293 0.02808762 -0.018588452 -0.008524712
0001e0 ec a8 10 3d 13 5b 40 bc 70 e1 9f 3d 5e 06 46 bd
       0.035317346 -0.011740464 0.07806671 -0.048345916
0001f0 72 5c 0a 3d 80 ec a6 bd 37 3e 2a 3c 2c fa 92 bb
       0.03377957 -0.081505775 0.01039081 -0.004485389

bn1.running_mean f4 [128]
000000 00 00 00 00 7f da 80 3d 04 00 00 00 26 91 56 41
       0.0 0.06291675 6e-45 13.410437
000010 51 f9 38 40 da 49 b8 42 00 00 00 00 77 33 3d 42
       2.890217 92.14424 0.0 47.30026
000020 04 00 00 00 9d 1c 38 41 04 00 00 00 14 33 be 41
       6e-45 11.506986 6e-45 23.77494
000030 1b a5 c7 3a 93 7a 99 41 a8 42 11 41 00 00 00 00
       0.00152317 19.18485 9.0787735 0.0
000040 04 00 00 00 00 00 00 00 00 00 00 00 87 c3 d8 3b
       6e-45 0.0 0.0 0.0066151056
000050 04 00 00 00 04 00 00 00 7b c0 fd 40 5d 99 2d 3c
       6e-45 6e-45 7.929746 0.010595647
000060 6f 3b 96 42 00 00 00 00 b2 e5 6e 41 00 eb b9 41
       75.11608 0.0 14.931078 23.239746
000070 38 be 8d 41 04 00 00 00 09 85 b0 41 ba 14 b0 41
       17.71788 6e-45 22.064959 22.01012
000080 b5 32 98 41 04 00 00 00 33 7b 57 41 00 00 00 00
       19.02476 6e-45 13.467578 0.0
000090 00 00 00 00 c5 52 07 41 f8 e0 de 41 00 00 00 00
       0.0 8.457707 27.859848 0.0
0000a0 83 ea 36 3d c2 6d 70 41 15 9b 57 42 03 93 63 42
       0.04465724 15.026796 53.901447 56.893566
0000b0 04 00 00 00 00 00 00 00 84 7f 88 42 42 4d de 40
       6e-45 0.0 68.249054 6.946931
0000c0 67 56 d7 3f 6c dd b9 41 fe d6 2c 21 ae 25 02 42
       1.6823243 23.233116 5.8560407e-19 32.536797
0000d0 a1 0f 3f 3e 50 91 b7 3a 00 00 00 00 00 00 00 00
       0.18658306 0.0014005098 0.0 0.0
0000e0 f2 f5 4a 41 43 ce 61 3a 04 00 00 00 26 79 3a 41
       12.685045 0.0008613804 6e-45 11.654577
0000f0 f9 be e6 3b db 00 98 41 10 cb 97 42 00 00 00 00
       0.0070418087 19.000418 75.89661 0.0
000100 48 0e 95 41 9d 70 22 41 f7 88 ef 41 b4 45 bc 41
       18.631973 10.1524935 29.941877 23.534035
000110 3c fa ad 41 90 e9 c0 42 de 8e b1 41 00 00 00 00
       21.747185 96.45618 22.19476 0.0
000120 04 00 00 00 a7 a5 36 41 53 4a 8c 41 6f bb b8 42
       6e-45 11.415442 17.536291 92.36608
000130 56 f3 c5 41 00 00 00 00 3c e3 b3 3e 30 46 15 3b
       24.743816 0.0 0.35134304 0.002277743
000140 72 d7 86 42 f0 8a 30 42 c8 7e 83 41 00 00 00 00
       67.42079 44.13568 16.436905 0.0
000150 3b 2a 46 41 76 ef 84 41 6e 22 9c 41 04 00 00 00
       12.38531 16.616924 19.516811 6e-45
000160 87 3b 1b 3c 4d bc 5f 42 04 00 00 00 04 00 00 00
       0.009474642 55.933887 6e-45 6e-45
000170 04 cf a2 40 70 d6 12 42 7e e9 0e 42 a2 de 8f 42
       5.0877705 36.70941 35.72802 71.93483
000180 00 00 00 00 43 34 10 0f 00 00 00 00 76 b5 a7 3b
       0.0 7.1098134e-30 0.0 0.0051180674
000190 10 91 06 3f c1 b6 89 41 8a fb 5a 40 96 11 55 42
       0.525651 17.214235 3.4216027 53.267174
0001a0 d6 88 b7 41 38 53 76 42 30 34 b2 40 5a f8 1c 40
       22.941814 61.58127 5.5688705 2.4526582
0001b0 46 2c cf 3f a1 96 83 41 13 d8 a6 40 cb 46 0f 40
       1.6185386 16.44855 5.2138762 2.2386959
0001c0 00 00 00 00 e5 34 ca 41 04 00 00 00 7e 23 56 3e
       0.0 25.275827 6e-45 0.20911977
0001d0 8a 80 7a 41 04 00 00 00 00 00 00 00 0a 05 57 42
       15.656382 6e-45 0.0 53.75492
0001e0 00 c7 13 3c 37 19 44 3f 00 00 00 00 b0 1c 00 00
       0.009019613 0.76600975 0.0 1.0291e-41
0001f0 04 00 00 00 00 00 00 00 9a 33 ee 40 04 00 00 00
       6e-45 0.0 7.443799 6e-45

bn1.running_var f4 [128]
000000 04 00 00 00 f8 1b ad 3e 04 00 00 00 13 17 9f 42
       6e-45 0.338104 6e-45 79.54507
000010 42 72 17 42 c9 bb b3 43 04 00 00 00 40 8c 19 43
       37.86158 359.46707 6e-45 153.54785
000020 04 00 00 00 a4 16 c8 41 04 00 00 00 00 10 65 42
       6e-45 25.011055 6e-45 57.265625
000030 ac f9 0d 3b c5 a8 3b 42 cb d3 44 42 04 00 00 00
       0.0021663709 46.914814 49.20683 6e-45
000040 04 00 00 00 04 00 00 00 04 00 00 00 fc 35 89 3c
       6e-45 6e-45 6e-45 0.016749375
000050 04 00 00 00 04 00 00 00 1a ea e7 41 33 23 cc 3c
       6e-45 6e-45 28.989307 0.024919128
000060 d2 a2 71 43 04 00 00 00 3e 57 44 41 41 66 d6 41
       241.63602 6e-45 12.271299 26.799929
000070 95 af ba 42 04 00 00 00 bb b5 8d 42 ce 85 42 42
       93.34293 6e-45 70.85494 48.63067
000080 a4 84 1d 43 04 00 00 00 d3 82 f2 41 04 00 00 00
       157.51813 6e-45 30.313879 6e-45
000090 04 00 00 00 74 82 70 42 e1 2b 7e 43 04 00 00 00
       6e-45 60.127396 254.1714 6e-45
0000a0 08 5b 24 3f c7 e2 78 42 81 6d 7e 42 38 48 b2 43
       0.642014 62.221462 63.606937 356.5642
0000b0 04 00 00 00 04 00 00 00 79 d4 01 43 e2 90 10 42
       6e-45 6e-45 129.82997 36.141487
0000c0 47 89 b4 41 fb b7 32 43 64 79 9b 22 95 a3 c7 41
       22.56703 178.71867 4.214136e-18 24.954874
0000d0 b0 e8 95 40 be f5 0f 3b 04 00 00 00 04 00 00 00
       4.684654 0.0021966542 6e-45 6e-45
0000e0 fc 83 c4 41 a3 0f 9d 39 04 00 00 00 7c 07 11 43
       24.564445 0.00029957024 6e-45 145.02924
0000f0 6a da 88 3c 5f bc 05 42 35 b9 99 43 04 00 00 00
       0.01670571 33.433956 307.44693 6e-45
000100 c9 7a 05 43 6a 40 58 41 e0 70 c7 42 1e 56 b8 41
       133.47963 13.515726 99.72046 23.04205
000110 56 60 ad 42 5c 25 b2 43 fc 93 37 42 04 00 00 00
       86.688156 356.29187 45.894516 6e-45
000120 04 00 00 00 2c ef 1d 42 3d d9 c1 41 5b 1c 1f 44
       6e-45 39.483566 24.231073 636.44305
000130 3e 1f d5 42 04 00 00 00 14 95 1c 40 f2 d5 6c 3b
       106.56102 6e-45 2.446599 0.0036138264
000140 54 ed 2a 43 0c 9f 20 43 93 27 8d 41 04 00 00 00
       170.92706 160.62128 17.644323 6e-45
000150 4e cd b4 41 00 e9 a5 42 89 73 f4 41 04 00 00 00
       22.600246 82.95508 30.556414 6e-45
000160 1b be ec 3c 9d 6d bd 42 04 00 00 00 04 00 00 00
       0.028899243 94.71409 6e-45 6e-45
000170 cb 58 63 42 38 1b 08 43 9a 71 85 43 38 db 17 43
       56.83671 136.10632 266.8875 151.85632
000180 04 00 00 00 2e d5 4a 10 04 00 00 00 3c 96 10 3c
       6e-45 4.0001703e-29 6e-45 0.008824881
000190 6d 85 71 40 b3 18 fd 41 05 03 3e 42 36 c8 07 43
       3.7737687 31.63706 47.50295 135.78207
0001a0 06 53 d9 42 34 63 5a 43 e3 e0 9a 42 e7 28 c2 41
       108.662155 218.38751 77.43923 24.269972
0001b0 a0 ab 99 41 71 22 61 42 7d a1 87 41 1d 8f 0f 42
       19.208801 56.283634 16.953852 35.88976
0001c0 04 00 00 00 c2 3d 67 42 04 00 00 00 6f 8c d5 3f
       6e-45 57.81031 6e-45 1.6683482
0001d0 e3 79 2c 42 04 00 00 00 04 00 00 00 20 1b f7 42
       43.11903 6e-45 6e-45 123.55298
0001e0 1e 86 e0 3c a7 f8 cb 40 04 00 00 00 fa 84 00 00
       0.027407702 6.374103 6e-45 4.7703e-41
0001f0 04 00 00 00 04 00 00 00 dc ea bb 41 04 00 00 00
       6e-45 6e-45 23.489677 6e-45

fc2.weight f4 [64, 128]
000000 6f 47 c1 bd 61 b9 11 bd c3 e8 22 3e 88 e3 22 bc
       -0.09437453 -0.03557718 0.15909104 -0.009941943
000010 2e e0 0c 3d ba ec 82 bd 8f a5 79 be 5a 80 66 3d
       0.034393482 -0.06392808 -0.24379562 0.05627475
000020 7a e4 49 bd 99 80 34 be 0e ef 07 3e 8b d8 ba bd
       -0.049290158 -0.17627181 0.13274786 -0.091233335
000030 87 c9 6e bd 43 1f be bd 0d 93 38 3d af 2c 3b 3d
       -0.05829766 -0.092833064 0.045062114 0.04569691
000040 bd 2c f5 3d ac 3d c6 3d 14 d4 5e 3e e2 16 85 bd
       0.11971424 0.09679732 0.21760589 -0.06498505
000050 e9 b1 19 3e 5c d2 68 bd 84 17 57 3d 24 47 80 3b
       0.15009274 -0.05684124 0.05251266 0.0039147306
000060 31 b1 00 bd 6c b4 56 3e 30 0f 69 3d cb 0c db bd
       -0.031418983 0.20967263 0.05689925 -0.106957994
000070 18 b7 fb 3d cf 4c d6 bd f4 15 6c 3e 65 9a 4b 3d
       0.12290782 -0.10463869 0.2305525 0.04970779
000080 e3 21 56 bc 4d 5d 4c 3d f0 21 9d 3a e1 42 17 3c
       -0.013069603 0.049893666 0.0011988264 0.009232254
000090 12 4d d2 bd 50 2d 79 3d ff e7 48 bd f7 fa 78 bc
       -0.10268606 0.06083423 -0.049049374 -0.015196553
0000a0 2f f6 d7 3c ff a0 d9 3d 94 3e f8 3b c6 94 c7 bd
       0.026362507 0.10626411 0.0075758193 -0.09745173
0000b0 99 50 00 3e 6a 6b 16 3e b7 fa 61 bd c6 a0 0d be
       0.12530746 0.14689413 -0.05517074 -0.13830861
0000c0 c2 e8 55 be bb 41 ef bd f3 1d cc bc af 36 4d bd
       -0.20889571 -0.11682459 -0.024916625 -0.05010098
0000d0 1b 87 85 3d 23 87 4b bd aa 78 a2 bd 84 6d ea bd
       0.0651991 -0.049689423 -0.07933171 -0.1144667
0000e0 4b ee 7e bd dd 5f 47 bd 63 17 23 be f0 2d 36 be
       -0.062238973 -0.048675407 -0.1592689 -0.17790961
0000f0 89 2b 93 3d 3b 16 d1 3d 71 3b 31 3e 2d 05 2f 3e
       0.07186038 0.10209318 0.17307831 0.17091818
000100 aa f8 13 3e 09 e3 15 3e cc 0e fd bc 49 91 ed 3d
       0.14450327 0.14637388 -0.030890845 0.115999766
000110 e1 d9 f2 bc 0f 8e a7 3d e3 69 20 be 28 2d 59 bd
       -0.029644908 0.081813924 -0.15665393 -0.05302158
000120 24 43 49 3c 69 b8 8e 3c ae 9b 0a be ae df 8d 3d
       0.012284074 0.017421918 -0.1353595 0.06927429
000130 48 8d c1 bd 9d 06 09 3e 95 a2 c3 bd 1b c4 d0 3d
       -0.094507754 0.13381429 -0.095524944 0.10193654
000140 9c 5c 17 be ce 48 09 3d be 69 b7 3d 8f 78 88 3d
       -0.14781421 0.033516698 0.089557156 0.0666362
000150 00 28 1c be e3 b3 3c 3e 75 86 45 bd 71 45 e6 3d
       -0.15249634 0.18427996 -0.04822393 0.11243714
000160 55 13 f6 3d 11 bf 27 3b 26 3c 6a 3c 08 e1 45 be
       0.12015406 0.0025596062 0.014296567 -0.19324124
000170 8b 17 80 3c f6 99 bc 3d 18 0b cf bd 2c 52 49 3e
       0.015636226 0.09209053 -0.10109538 0.19660252
000180 ce 3a 6c 3d 8e ea 77 be aa 37 62 3d 8e cb 91 bd
       0.057673268 -0.2421057 0.055228867 -0.07118903
000190 a3 b7 8a bd 94 1c b4 bc 3e a6 00 bb 50 30 88 bc
       -0.06773307 -0.021986283 -0.0019630338 -0.0166246
0001a0 69 40 33 3e 99 92 e8 3d 4f d6 e3 3d 5d 26 84 bd
       0.1750504 0.11356086 0.111248605 -0.0645263
0001b0 70 7f f0 3c 4b cc b7 bd 72 53 ec 3d cc 87 9b 3c
       0.029357642 -0.08974513 0.115393534 0.018985651
0001c0 24 66 aa 3c 16 67 9c 3d ab 1b 8e 3d 49 23 22 3e
       0.020800658 0.076368496 0.06938871 0.15833773
0001d0 83 39 fa bd 61 e7 0f 3c b1 99 bc 3d 71 46 d9 3d
       -0.12218001 0.008783192 0.09209002 0.10609139
0001e0 11 f1 b6 bd 1e fc 17 be 8e d6 8b 3d 76 c2 63 3e
       -0.089326985 -0.14842269 0.068280324 0.2224215
0001f0 0d 30 d5 3c b2 1c cf 3d bc 7f 5b be 06 a1 0a 3d
       0.026023889 0.10112895 -0.21435446 0.03384497
000200 44 39 69 3e 3f 3c 3d 3d 07 38 c4 3c d3 16 b4 bd
       0.22775751 0.046200033 0.023952497 -0.08793416
000210 82 3d 54 3e 78 be 8e 3c 0d 19 b2 bd ad b0 0d 3e
       0.20726588 0.017424807 -0.08696184 0.13836928
000220 12 24 ff bd 90 a8 c9 3d c7 84 9f 3d e9 35 6f 3e
       -0.12458052 0.09846604 0.07788997 0.23360409
000230 0d be 21 be 4c 1d dc bb 0f df cb bd aa fa 31 3d
       -0.15795155 -0.0067173596 -0.099546544 0.043451943
000240 50 73 cd bc d3 0f a7 bd 70 e2 61 3d a2 d5 b2 bc
       -0.0250794 -0.08157315 0.05514759 -0.021830384
000250 b1 f2 4b be f6 ad 03 3e 07 d8 75 3d ae 39 bb 3d
       -0.19916798 0.1285933 0.060020473 0.09141861
000260 34 e0 30 3e 2a 90 2c 3d f1 55 7f 3b c8 7e 9b 3c
       0.17273027 0.042129673 0.0038961137 0.018981352
000270 20 bb 14 3e 55 5f c0 bd f4 a3 69 be b7 4a 89 be
       0.14524508 -0.09393183 -0.2281645 -0.26814815
000280 37 ab cd bd 95 39 10 bd 08 c2 93 3c d0 82 50 3e
       -0.10042422 -0.035211165 0.018036857 0.20362401
000290 3e 8d a4 3c 08 ab 89 3d 05 de d6 bc e4 a0 bf bd
       0.02008688 0.06722075 -0.026228914 -0.09356859
0002a0 77 2e 1c 3c 1a 93 52 3e fe a9 33 be 69 38 4d bd
       0.009532562 0.20563927 -0.17545316 -0.050102625
0002b0 7e ac ed bd d5 7d 5e bd b1 01 23 be 0b 01 98 3d
       -0.11605166 -0.05431922 -0.15918614 0.07422074
0002c0 03 6e 88 bd 8f 65 c1 3d d4 b2 65 3c 4b d3 76 bd
       -0.06661608 0.09443199 0.014019687 -0.0602601
0002d0 ac 92 e1 bc 02 1d 89 3e fe a9 ce 3d 45 ce e3 3c
       -0.027535759 0.26779944 0.10091017 0.027808318
0002e0 fb 7d e9 3c b2 4a 19 3e 62 cc 35 be 46 29 7d 3d
       0.028502455 0.149699 -0.17753747 0.06180694
0002f0 57 64 a3 bd 3f de 1b bd d3 97 8f 3d 87 32 ae 3e
       -0.07978123 -0.038053747 0.0701138 0.34022924
000300 51 4f 0f be 5d 96 15 be c4 6e 12 be 21 28 5b 3c
       -0.139951 -0.1460814 -0.14300066 0.013376267
000310 36 1a 8b 3e c7 21 10 be 0d fb 63 be 35 d9 10 bd
       0.27168435 -0.14075385 -0.22263737 -0.035363395
000320 e7 c9 0c be 08 88 f3 bd 09 03 43 3e 02 1b 3f be
       -0.13748895 -0.1189118 0.19044127 -0.18662646
000330 f5 ec fe bc fb 4f 81 3d 74 a4 cb bd 22 a3 be bc
       -0.03111885 0.06314083 -0.09943476 -0.023271147
000340 83 a7 8e be e5 90 24 3e 5c 19 80 bd 9b 83 26 bc
       -0.27862176 0.16070898 -0.06254837 -0.010163213
000350 cd 9d 4c be b2 9b cf bc 6a 8c cd 3c 67 bc f3 bc
       -0.19982071 -0.025342796 0.025091369 -0.029752923
000360 82 26 95 bd ae bf 98 bd 0d 39 b2 bd f1 65 1e be
       -0.072827354 -0.07458435 -0.08702288 -0.15468575
000370 92 5f 6d 3d 36 dc e4 bc 5a b2 47 3d 8b 71 82 bd
       0.05795247 -0.027937036 0.048754074 -0.06369313
000380 5c 2b a3 3d 9e 71 3a 3e ff 84 03 be 74 9e 85 bd
       0.079672545 0.18207404 -0.12843703 -0.06524363
000390 7e d3 4a bb e5 4a 74 3d 65 c1 36 bd aa 07 1f 3e
       -0.0030948813 0.059641737 -0.04461803 0.15530267
0003a0 ae a4 ea 3b 4c 28 e7 bc cc e8 a6 bd 3b 21 0b be
       0.0071607446 -0.028217457 -0.08149871 -0.13586895
0003b0 a7 c4 82 3d 33 cd 45 3b 3e 14 bb 3d 20 80 1d be
       0.06385165 0.0030182123 0.0913472 -0.15380907
0003c0 ca 88 45 3d e4 f0 00 bc 45 54 b3 be a1 bf 20 be
       0.048226155 -0.007869933 -0.3502523 -0.156981
0003d0 25 c5 0c 3e 44 f3 59 be 08 21 f7 3d 5d dd 3f be
       0.1374708 -0.21284205 0.12066847 -0.18736787
0003e0 1e de 49 3e eb 64 03 3e 22 2b da bd cc ba 39 3d
       0.19713637 0.12831466 -0.10652758 0.04534416
0003f0 54 28 81 3e 8f 7e 69 3d 3e f8 a5 3d 4e 52 dd 3d
       0.2522608 0.05700546 0.08103989 0.10806714

fc2.bias f4 [64]
000000 1c 38 88 3c 72 fd af ba f2 cf 59 bd 00 57 60 bd
       0.016628318 -0.0013426973 -0.053176828 -0.05477047
000010 b5 cd 6f bd e1 d9 59 3d 02 65 e4 bc 8a ad c8 ba
       -0.058545787 0.0531863 -0.027880196 -0.0015310508
000020 f7 8d 8c 3d f4 7a a3 bc 0a 38 63 3c 4e 8e cc bb
       0.06863015 -0.01995609 0.013868341 -0.00624255
000030 40 ce 96 3c 59 9b 40 bd aa 38 c8 3d c3 42 ec 3c
       0.018408895 -0.04702315 0.09776433 0.028840428
000040 33 15 80 3a a0 e4 d6 bc 58 bb 60 bc d9 8d 62 3d
       0.0009771943 -0.026232064 -0.013716541 0.055311058
000050 97 4e 1f bd 32 f7 1f bd 10 81 08 3d bb 9d f7 bc
       -0.03889331 -0.039054103 0.03332621 -0.030226579
000060 d2 85 e9 bc ed 4a d9 3c 90 be 99 bd 53 9c 3e bc
       -0.028506193 0.026524985 -0.0750705 -0.01163395
000070 cb b5 67 bc fb 90 23 3d 24 86 d8 bb 57 04 d0 3c
       -0.014142464 0.039933186 -0.0066077877 0.025392694
000080 c9 92 4b 3c 3a 94 0e bd 37 b4 4e bc 97 00 3e 3b
       0.012425133 -0.03480933 -0.012616209 0.002899205
000090 b6 b0 99 bb da c2 a0 bd 6b 62 63 bd 70 d7 37 3c
       -0.004690255 -0.07849665 -0.05551378 0.011220798
0000a0 83 d0 82 bc a4 3a 93 bc 20 00 b0 3c 81 a3 94 3b
       -0.015968567 -0.017972298 0.021484435 0.0045360927
0000b0 77 7b ba bc b1 dc b2 3c 82 35 c8 3b f7 07 6a bc
       -0.02276395 0.02183375 0.0061098943 -0.0142841255
0000c0 0f 80 24 3d 23 c6 6d bd ae 87 ba 3c c9 7f 6e 3d
       0.04016119 -0.058050286 0.022769775 0.058227334
0000d0 af 11 8a 3c 58 70 a9 bc 89 e2 0f 3d 0b 62 77 3d
       0.016854135 -0.020683452 0.03512815 0.060396235
0000e0 cc 70 9d 3c dd 38 30 bd 78 0f 27 bd 59 3b 27 3d
       0.019218825 -0.04302298 -0.040786237 0.040828083
0000f0 77 62 42 3d e2 5a 4d bb f5 c2 55 3c b6 b0 33 bc
       0.047457185 -0.0031334688 0.01304697 -0.010967424

bn2.weight f4 [64]
000000 3c d0 80 3f 65 a0 6e 3f 3f 61 84 3f 50 79 78 3f
       1.0063548 0.9321349 1.0342177 0.9706011
000010 66 4b 7d 3f 57 a9 73 3f 88 21 85 3f 4f d3 79 3f
       0.98943174 0.9518027 1.0400858 0.97588056
000020 3f 37 89 3f b3 f8 6b 3f 36 54 84 3f 9e 46 81 3f
       1.0719985 0.9217636 1.0338199 1.0099676
000030 81 23 7b 3f e3 4b 75 3f 78 6a 6b 3f ae e9 7d 3f
       0.9810105 0.9581892 0.91959333 0.9918469
000040 c7 cc 71 3f 60 0b 80 3f 3d ac 7d 3f b9 aa 84 3f
       0.9445309 1.0003471 0.9909094 1.03646
000050 f4 63 83 3f f1 a7 75 3f e8 22 7f 3f ba cd 82 3f
       1.0264878 0.95959383 0.9966264 1.0219033
000060 bb 45 7f 3f 2c d0 87 3f b0 5f 83 3f 46 c4 7b 3f
       0.99715775 1.0610404 1.0263577 0.98346364
000070 a3 b5 7e 3f 73 fe 83 3f ab 74 79 3f 7e 75 80 3f
       0.99495906 1.0312027 0.97443646 1.0035856
000080 c0 8b 85 3f a0 07 76 3f 24 71 82 3f fd 9f 7c 3f
       1.0433273 0.96105385 1.0190778 0.9868162
000090 fd b4 84 3f 6f 01 8a 3f ce 35 83 3f db 2a 79 3f
       1.0367733 1.0781687 1.0250795 0.9733102
0000a0 6f 72 83 3f 75 35 84 3f ee 17 7e 3f fb 9e 85 3f
       1.0269297 1.0328814 0.99255264 1.0439142
0000b0 55 7d 73 3f e8 50 7f 3f 5d aa 6e 3f 19 63 79 3f
       0.95113117 0.9973283 0.93228704 0.97416836
0000c0 8f c9 7f 3f a5 da 7f 3f 92 36 83 3f ff 81 7b 3f
       0.9991693 0.99943 1.0251029 0.98245233
0000d0 67 6c 7f 3f 8c 2f 7a 3f d1 31 7a 3f 16 ba 86 3f
       0.99774784 0.977288 0.97732264 1.0525539
0000e0 0e a1 81 3f 2f fc 82 3f aa a7 7d 3f c1 21 79 3f
       1.0127275 1.023321 0.9908396 0.9731713
0000f0 cb f6 79 3f 9b 14 81 3f 87 e2 81 3f 75 eb 8a 3f
       0.976422 1.0084413 1.0147256 1.0853106

bn2.bias f4 [64]
000000 4f 4d 62 3c 36 e1 e1 bc bf 84 95 bc 07 18 10 3d
       0.013812377 -0.02757321 -0.018251775 0.035179164
000010 46 9a d8 ba 0e 0e fc bc 8a dc f3 bb 6b c5 59 3d
       -0.0016525469 -0.03076842 -0.007442062 0.053166788
000020 13 92 88 3d 82 2a 04 ba 44 00 bf 3c 6b dd 01 bd
       0.066684864 -0.00050417345 0.023315556 -0.0317053
000030 85 75 28 bd 1c fa 04 3c 8e cc 82 ba 4d b8 d9 3a
       -0.0411277 0.008116271 -0.0009979175 0.0016610712
000040 62 a6 d7 3b a0 60 8d bb 8f bb ba 3c 96 d4 d2 bc
       0.0065811137 -0.004314497 0.022794513 -0.025736134
000050 40 83 fd 3c 74 66 36 3c 1e 11 15 bd 39 48 23 3d
       0.030946374 0.011132825 -0.036393277 0.0398638
000060 d5 c0 97 bc 06 e4 0b bd 58 11 93 bc 43 ca 0b 3d
       -0.018524567 -0.034153007 -0.017952606 0.03412844
000070 2a 31 14 bb 92 95 2d 3b bf 06 a9 3c 95 5f 55 bc
       -0.0022612312 0.0026486856 0.0206331 -0.013023277
000080 26 6c 07 3c 60 ee 8a 3c 3d c5 5b bd b0 35 93 3c
       0.008265531 0.01695937 -0.053654898 0.017969936
000090 1c 80 c9 3c 3f 87 a6 bb 7b 4e 0e bc c9 ce a0 3c
       0.02459722 -0.0050820406 -0.008685703 0.019629853
0000a0 44 6f ed bb 95 55 32 bd 0c a3 39 bd bf 3a a0 3b
       -0.00724593 -0.04353865 -0.04532151 0.0048898156
0000b0 da 16 55 bc 8c 68 49 3b e8 a6 a1 3c 36 2e 68 bc
       -0.0130059365 0.003073248 0.019732907 -0.014171174
0000c0 eb 72 c7 bc 46 fc 5f 3c 3b 3e 27 3d de 14 1a bc
       -0.02434679 0.0136709865 0.040830832 -0.009404389
0000d0 73 19 53 3d 44 b3 d1 3c 3a 2e 2c 3b 94 1c 53 bc
       0.051537942 0.025598176 0.002627267 -0.0128852315
0000e0 fb 64 43 bd 7b e8 fc 3b eb 33 c9 3c 60 ad dc 3c
       -0.047703724 0.0077181435 0.02456089 0.02693814
0000f0 cb 12 e8 bc c2 b8 bb 3a 72 ba 1a 3d 12 9d 69 3d
       -0.028329274 0.001432203 0.037775464 0.05703456

bn2.running_mean f4 [64]
000000 4c a1 eb 3e b2 a8 ab 3e b6 69 ef 3e 24 0c 01 3f
       0.46021497 0.33527142 0.4676034 0.5040915
000010 73 06 74 3e 30 5d 23 3f a0 c8 08 3f 33 cf fc 3e
       0.23830585 0.6381407 0.5343113 0.4937683
000020 ef 60 0c 3f 18 e4 bd 3e 55 8e da 3e 0b 5e d2 3e
       0.5483541 0.37088084 0.42686716 0.41087374
000030 ed ac f8 3e b5 41 1f 3f 26 3c 03 3f 5d 1c 0f 3f
       0.48569432 0.62209636 0.51263654 0.55902654
000040 7f 2a c5 3e c6 53 fa 3e 98 97 db 3e 6c ee 24 3f
       0.38508984 0.4889204 0.42889094 0.644263
000050 62 98 cd 3e 22 f0 b7 3e 06 17 1b 3f 47 00 e6 3e
       0.4015532 0.35925394 0.60582006 0.44922087
000060 54 4a d3 3e 76 a4 10 3f 8d b6 6f 3e dd 80 ba 3e
       0.41267645 0.5650095 0.23409481 0.3642644
000070 5f 98 d4 3e fa f0 01 3f 44 f0 a7 3e 7c 8a 04 3f
       0.415225 0.50758326 0.32800496 0.5177381
000080 5f 90 c0 3e 32 5a 3c 3e 2b 93 18 3f c1 38 3d 3f
       0.37610146 0.18393782 0.5959956 0.73914725
000090 7c 09 c8 3e 54 2f 8b 3e 75 ac 55 3e e5 82 18 3f
       0.39069736 0.27184546 0.20866568 0.5957473
0000a0 10 63 ec 3e d4 f0 b3 3e 20 7f 34 3f 91 01 8a 3e
       0.4616933 0.35144675 0.7050648 0.2695432
0000b0 86 0a 84 3e 60 bf b6 3e 65 cd d0 3e 78 04 3c 3f
       0.2578928 0.35692883 0.40781704 0.7344432
0000c0 ba 8d 0d 3f a3 fc c7 3e 77 16 2b 3f b8 b8 16 3f
       0.5529438 0.39059934 0.66831154 0.5887561
0000d0 75 ee c9 3e 1a 38 1b 3f 1b 68 0e 3f 68 25 1c 3f
       0.3943974 0.6063248 0.556276 0.6099458
0000e0 0f 94 bf 3e da 12 f1 3e c8 5c d1 3e 78 93 0a 3f
       0.37417647 0.47084695 0.408911 0.5413127
0000f0 ee b2 0e 3f 36 51 bb 3e cc db 87 3e 5e 75 bc 3e
       0.55741775 0.36585397 0.2653488 0.36808294

bn2.running_var f4 [64]
000000 7a 8f 93 3e db 82 d5 3e d3 58 dc 3e c2 a1 23 3f
       0.288204 0.41701397 0.43036518 0.639187
000010 e7 53 1b 3e dd e6 24 3f 2d bd 1f 3f fe fb 03 3f
       0.15168725 0.6441477 0.62398034 0.51556385
000020 64 c8 27 3f 09 97 ad 3e cf 7f ac 3e 02 89 1c 3f
       0.65540147 0.33904293 0.3369126 0.6114656
000030 f5 e7 11 3f 42 c0 d4 3f c5 3d cb 3e b2 38 1d 3f
       0.56994563 1.6621172 0.39695564 0.61414635
000040 31 33 e7 3e ac 2c dc 3e 6a f6 a3 3e a6 e0 d2 3e
       0.45156243 0.43002832 0.32023937 0.41187018
000050 0b e6 80 3e 24 a1 6c 3e a3 9d d1 3e 32 22 13 3f
       0.2517551 0.23108345 0.4094058 0.5747405
000060 6e 7e 07 3f a2 c3 d4 3e 5c 7d 21 3e 16 17 83 3e
       0.5292729 0.41555506 0.15770477 0.2560355
000070 61 6e aa 3e e1 e5 c6 3e d1 bb 88 3e 58 a1 b8 3e
       0.33287337 0.3884726 0.26705793 0.36060596
000080 a6 a7 87 3e 53 29 ef 3d 58 2d da 3e f8 28 c9 3f
       0.26495093 0.11677804 0.4261272 1.5715628
000090 80 d4 bd 3e fe 89 54 3e 20 4c 1e 3e 0f 50 03 3f
       0.37076187 0.20755765 0.15458727 0.51294035
0000a0 5a 71 ec 3e 2b 86 7e 3e 2b a9 5e 3f 73 4e 1a 3e
       0.4618023 0.24855869 0.8697688 0.15068989
0000b0 46 58 4a 3e 5d bb 3b 3e d4 36 dd 3e a1 72 3e 3f
       0.19760236 0.18333192 0.43205893 0.7439366
0000c0 87 29 4c 3f e9 91 1c 3f 31 1f 69 3f 41 d3 4e 3f
       0.79750866 0.6116014 0.9106322 0.807911
0000d0 88 8d 81 3e 04 c7 88 3f 95 e9 8f 3e b6 61 d0 3e
       0.25303292 1.0685735 0.28107896 0.40699548
0000e0 19 08 82 3e c1 15 32 3f c4 34 6d 3e 7a 7f a7 3e
       0.25396803 0.69564444 0.2316466 0.32714444
0000f0 69 1b c9 3e ad bf b2 3e 3b 69 26 3e 3c 46 99 3e
       0.39278725 0.34911862 0.1625108 0.29936397

fc3.weight f4 [32, 64]
000000 eb b6 45 be dc c7 93 3d e2 90 6b 3d be 37 93 bb
       -0.19308059 0.072158545 0.057511218 -0.004492729
000010 aa 3d 29 3d 81 23 a8 3d cc 95 2e 3e 52 5b 9d 3d
       0.041318573 0.08209897 0.1704933 0.076834336
000020 b7 de 49 3e 58 f1 d1 bd 35 5c d6 3e 20 08 c8 bd
       0.19713865 -0.10251111 0.41867223 -0.09767175
000030 dc 6c e0 be 60 ea 0a 3b 34 0e d5 3d bb 4b aa 3d
       -0.43833053 0.0021196827 0.104031 0.08315226
000040 1c 8a ce bd b9 c8 7d bd 87 fe 8b 3e 75 3f 91 be
       -0.10084936 -0.061959002 0.27342626 -0.28368726
000050 6f aa 4c be ce 3a fd 3d 46 c7 4d 3e f7 c4 8e 3e
       -0.1998689 0.12364732 0.20095548 0.27884647
000060 a2 3c 20 bd 20 3c 06 bf ba 9a d7 bb eb ec 2c 3d
       -0.039120324 -0.52435493 -0.006579724 0.04221813
000070 4c bd 2e bb 44 10 b7 bd ae c0 46 be f4 62 ff 3c
       -0.0026663123 -0.08938649 -0.19409439 0.031175114
000080 33 7c a8 3d cc 70 19 3e cc fd 00 3e 87 5b c4 3e
       0.08226814 0.14984435 0.12596816 0.3835108
000090 1a 40 b1 be af be 42 3d 01 50 0f be b1 1d b2 3d
       -0.34619218 0.04754513 -0.13995363 0.086970694
0000a0 41 42 28 be 22 b3 83 3d 71 7f 5b 3c 96 23 4c be
       -0.16431524 0.06430651 0.013397084 -0.1993545
0000b0 65 6a bd bc 55 2a c6 bd ed 60 61 3e 19 e4 8c 3e
       -0.023122022 -0.09676043 0.2200963 0.27517775
0000c0 56 f5 00 3e 18 08 9c bc e7 1b 81 bc 20 1a c2 3d
       0.12593588 -0.019046828 -0.015760375 0.09477639
0000d0 3f 35 0f 3e 7d 25 fe bc 5d 35 00 3e 1c 4e 2e 3e
       0.13985156 -0.031023735 0.12520356 0.17021984
0000e0 38 f6 b0 be ed e7 77 3d bd 3f bb 3d c6 ee ec 3c
       -0.3456285 0.060523916 0.091430165 0.02892245
0000f0 dd 9d d1 3d bf df 00 be 7a a3 77 3d 54 20 09 3e
       0.10235188 -0.12585352 0.060458638 0.13391238
000100 f1 4c e4 be e3 ef 24 be 45 b1 67 bd 36 33 f4 bd
       -0.44589952 -0.16107135 -0.05656554 -0.1192383
000110 a0 82 30 be f6 bd 27 3e 8d a6 45 bd ee 82 fa 3d
       -0.1723733 0.16381058 -0.04825454 0.12232004
000120 9d b7 49 be 8a ab 02 bf 4b a9 d6 bd 46 83 40 be
       -0.19698949 -0.51043 -0.10481509 -0.18800077
000130 35 d9 2a 3e 6b e4 41 3d 06 af 2e be 93 ab b5 bd
       0.1668442 0.047336977 -0.17058954 -0.08870616
000140 7c 2d d9 3d 19 43 7d be 87 b0 27 3c 8d eb 67 bb
       0.106043786 -0.24732627 0.0102349585 -0.0035388202
000150 82 01 40 3e 57 63 31 3e 00 75 7d bd 40 66 09 be
       0.18750575 0.17323051 -0.061879158 -0.13417912
000160 58 9c ad 3e 12 cd 39 3d 93 a8 3d 3e ae a6 4e 3d
       0.33908343 0.045361586 0.18521337 0.050451927
000170 5b 53 b3 bd 52 56 f9 3c 07 85 52 be ff 09 66 3e
       -0.08756133 0.030436669 -0.20558558 0.2246475
000180 f3 07 a4 be c2 4f 8e bd c3 67 2b be b7 f2 a3 3e
       -0.32037315 -0.06948806 -0.167388 0.32021114
000190 2f 7b 01 be d1 9a 12 be ae 12 57 be 64 9a 16 be
       -0.12644647 -0.1431687 -0.2100322 -0.14707333
0001a0 e4 9b a4 3d 55 b8 cf 3d 3e dd 99 3d 86 44 3f ba
       0.08037546 0.101425804 0.07512902 -0.00072962826
0001b0 a5 80 6d 3e 0e 4f 63 3e f3 d5 e7 3d 80 32 0f be
       0.23193605 0.22198126 0.113201044 -0.13984108
0001c0 2c 20 c3 3d ee d8 92 be 70 70 dd 3d 0f 09 37 3e
       0.09527621 -0.2868113 0.108124614 0.1787455
0001d0 fa ef 35 3e e9 4b 49 3d 1f 9c 97 bd bc 76 1e be
       0.17767325 0.04914466 -0.074028246 -0.15474981
0001e0 a7 1d a5 3e 4a 5a 69 be 9f 54 be 3e 3d c5 4f be
       0.32249185 -0.22788349 0.37173936 -0.20290084
0001f0 18 30 9c 3c 2e d5 31 3d 14 9e cf 3d 7e 53 dd be
       0.019065902 0.043416195 0.10137573 -0.43227762
000200 7f 2c 83 be a2 3b a5 3d d4 1c b2 be d7 60 25 3d
       -0.25619885 0.08068015 -0.3478762 0.040375557
000210 e4 06 23 be 73 e8 07 3e d5 98 84 3e f1 c0 0a be
       -0.15920597 0.13272266 0.25897852 -0.13550164
000220 88 b5 3d 3e 61 63 38 3e 2c f4 48 3d 7e ec 71 3e
       0.1852628 0.1800666 0.049060985 0.23625371
000230 ac 17 4f 3e a8 35 b3 bd 79 a3 4d 3e 48 c4 72 bd
       0.20223874 -0.087504685 0.20081891 -0.05926922
000240 e8 d1 27 be b7 4f ba 3d c0 51 91 bc 61 d9 08 3d
       -0.16388667 0.09097236 -0.017739177 0.033410434
000250 3c 29 f3 3e 58 33 87 3e c4 df db bb 84 54 6a bd
       0.47492397 0.2640636 -0.0067100246 -0.057209507
000260 99 a1 74 3a 39 3d 61 3c b4 94 8d be 26 2e 99 3b
       0.0009331941 0.013747507 -0.27652514 0.004674691
000270 21 64 3c 3d ed cb 54 3e 43 c0 aa 3c ca 71 d1 bd
       0.045993928 0.20780917 0.02084363 -0.10226782
000280 8a 70 16 bd 2a ea 83 3e e6 60 85 3d a8 a1 31 be
       -0.03672842 0.2576459 0.065126225 -0.17346823
000290 7a 40 5a be 55 6d b7 be 6c a4 ae be c8 16 c3 3d
       -0.21313658 -0.358256 -0.3410982 0.095258296
0002a0 5c a6 f9 3d 21 17 fe bd b1 7c 83 3d fb 80 75 be
       0.12189934 -0.12406755 0.064202674 -0.23974983
0002b0 c9 e2 60 bd 8f e7 0b bd 37 8e b0 bd 40 8a 01 3e
       -0.05490378 -0.03415638 -0.08620875 0.12650394
0002c0 ff 51 97 3e df c2 2c 3e 25 ee 50 bc 9a af 48 bc
       0.29554746 0.16871212 -0.012752091 -0.012248898
0002d0 b5 c4 8a 3d cb 7b c8 3d f4 4d 6a 3e d5 8d 80 be
       0.067758 0.09789237 0.228813 -0.2510821
0002e0 25 20 92 3e 09 21 e2 be c0 da 61 be 99 ea d2 bb
       0.2854015 -0.4416583 -0.22056103 -0.0064366576
0002f0 eb 0a 24 3d 29 58 83 bc 5b 39 94 be f9 8c f1 be
       0.040049475 -0.016033249 -0.2895001 -0.47177866
000300 a2 f2 d6 bd 5e b4 bf 3d 28 bc 17 be 80 b1 04 be
       -0.10495497 0.09360574 -0.1481787 -0.12958336
000310 4a cf fb 3d 54 66 4c be da cb 3c be e4 bb ea 3d
       0.122953966 -0.1996091 -0.18437138 0.114616185
000320 54 b0 81 be 1f f7 0c be 64 3a 52 bd f2 77 a5 3d
       -0.2532984 -0.13766144 -0.051325217 0.080795184
000330 ce 22 6d be 8d 4f 80 bd c4 ce b1 3d c7 51 0a 3d
       -0.23157808 -0.06265173 0.086820155 0.033769395
000340 e4 33 69 3e 36 2c fd bd 81 88 ea bd 64 c2 7c 3e
       0.22773701 -0.12361948 -0.11451817 0.24683529
000350 25 fd 3e bd f2 21 80 be bd f8 ae 3d 15 d6 54 3d
       -0.046628136 -0.25025898 0.08543537 0.051961977
000360 c1 a9 eb 3c dd e2 1e 3e 33 49 80 3e b0 32 a7 bd
       0.028767468 0.15516229 0.25055847 -0.08163965
000370 c9 aa fd 3c df a8 80 3c 6e 09 37 3e c2 1f 74 bd
       0.030965226 0.015705524 0.17874691 -0.0596006
000380 20 00 8f bb b5 20 a5 bd 7b b9 c6 3d e3 9d cd 3d
       -0.0043640286 -0.08062879 0.09703346 0.1003988
000390 6d 04 e5 be 80 9a c5 3d 9e 1d fd bc 4f 60 f5 be
       -0.4472994 0.09648609 -0.030897912 -0.4792504
0003a0 ba 57 91 3e 5b 21 40 3e 61 bc 36 3d ae 90 cc bd
       0.28387243 0.18762724 0.044613246 -0.09988533
0003b0 ed 12 b7 3e c3 ab 82 be ff 19 9d 3d f1 0f 5d 3e
       0.35756627 -0.2552167 0.07670974 0.21588112
0003c0 05 3a 80 bd 23 43 9f 3d 2a c1 5f ba 0b fd 78 3d
       -0.06261066 0.07776477 -0.00085355586 0.060788196
0003d0 67 55 c4 bd 16 04 79 be 8d 9d 6e 3d f2 20 43 3c
       -0.09586602 -0.24317965 0.05825572 0.01190971
0003e0 54 cb 2b be 95 61 2a bd 11 95 b8 3d f9 82 cd bc
       -0.16776782 -0.041596968 0.09012807 -0.025086867
0003f0 c6 ef 25 3e c7 d5 1a be c7 73 72 3e 39 86 7d be
       0.16204748 -0.15120612 0.23676978 -0.24758233

fc3.bias f4 [32]
000000 71 13 40 3c a4 6f a6 bc 52 69 ab bc 57 f8 dc bc
       0.011723385 -0.020316906 -0.020924244 -0.026973886
000010 bf 2c 8b 3b 95 34 d5 bb 29 ab 19 3c 4d c5 cd 3b
       0.0042472775 -0.0065065124 0.009379187 0.0062796236
000020 ba b0 30 bc 7a 58 9f 3c 61 d0 0d bd 25 d4 f0 bb
       -0.010784322 0.019451369 -0.034622554 -0.0073495083
000030 d2 54 2e bd 51 30 6c bd ad 71 87 bc d6 5e a3 3b
       -0.04256136 -0.057663266 -0.016533697 0.0049856706
000040 dc 6e e2 3b 10 33 87 3c 6a 23 9e bc 62 3e 41 bd
       0.006910188 0.01650384 -0.019303996 -0.047178634
000050 40 99 6b 3c b1 f1 55 3c 92 a1 62 3c 1a 18 57 3c
       0.014379799 0.013058112 0.013832467 0.013128305
000060 8e 0c ee 38 c7 f6 66 bc cb da a1 3c 1b 10 9e bc
       0.00011351063 -0.014096922 0.019757649 -0.019294789
000070 e5 f0 01 bc 4d f3 86 bb bf 21 89 bd c5 3f 09 3c
       -0.007930969 -0.004118359 -0.0669589 0.00837702

bn3.weight f4 [32]
000000 50 71 80 3f 10 cb 87 3f 72 79 83 3f e5 ff 85 3f
       1.003458 1.0608845 1.0271437 1.0468718
000010 e5 f0 81 3f 42 a7 82 3f 6f 72 7e 3f e7 e7 70 3f
       1.015164 1.0207293 0.9939336 0.94103855
000020 58 1e 81 3f c8 0d 7f 3f b0 be 88 3f b2 30 7e 3f
       1.0087385 0.99630404 1.0683193 0.99293053
000030 cc cd 79 3f 55 e4 7d 3f 0b ed 7a 3f 38 f7 81 3f
       0.97579646 0.9917653 0.9801795 1.015357
000040 00 71 76 3f 24 03 76 3f 37 22 81 3f 57 d0 7b 3f
       0.96266174 0.9609854 1.0088567 0.98364776
000050 e4 5d 82 3f ee 1f 7e 3f ad 15 7c 3f 89 f4 63 3f
       1.0184903 0.9926747 0.98470575 0.89045006
000060 14 61 7e 3f 9d 9e 72 3f 7e b9 86 3f 78 0b 7f 3f
       0.9936688 0.94773275 1.0525358 0.99626875
000070 fd e9 7e 3f 10 96 6a 3f 97 37 89 3f 3b ba 72 3f
       0.9957579 0.9163523 1.072009 0.94815415

bn3.bias f4 [32]
000000 1b c1 82 bc 13 12 43 bd 7d dc 97 bc 29 6f b7 3b
       -0.01596122 -0.04762466 -0.018537754 0.005597968
000010 36 92 a9 bc 60 a8 94 bd 4a b7 16 bd e5 d5 ff 3c
       -0.020699602 -0.072586775 -0.03679589 0.031229923
000020 15 39 0d 3c b4 14 cc bc c4 0a 3e 3c 87 a0 4c 3d
       0.008619566 -0.024912216 0.011599246 0.04995778
000030 93 6a 27 3c 99 a7 ad bd 42 5b 24 b9 d8 bd 59 bd
       0.01021828 -0.08479232 -0.00015674255 -0.053159565
000040 c0 5b f5 3c 7e 6e dd 3c 12 e2 db 3c a1 1e d0 3b
       0.029950976 0.027030226 0.026841197 0.0063513075
000050 ab 4a 26 3d c7 f9 97 3d b6 cc c8 3b 92 73 45 3d
       0.040598553 0.07420688 0.006127919 0.04820592
000060 92 76 12 3d 9e 0e 19 3d 0f 92 e3 bc fe d1 cc 3d
       0.03575761 0.037367456 -0.027779607 0.1000099
000070 d2 7f 24 bb e2 18 3e bb 57 fd 61 3c e6 58 ef ba
       -0.00251006 -0.002900653 0.013793311 -0.0018260747

bn3.running_mean f4 [32]
000000 8d aa 11 3f de ab 19 3f 55 ce 11 3f e0 fe c4 3e
       0.56900865 0.60027874 0.5695546 0.38475704
000010 cd b9 05 3f e2 f8 ef 3e c7 ac 65 3f 60 de 1d 3f
       0.52236634 0.4686957 0.8971676 0.6166744
000020 ce a4 d4 3e 5a 1a ca 3e db af 15 3f c0 d3 0d 3f
       0.41531986 0.3947323 0.5847146 0.5540123
000030 a5 2c 16 3f f1 26 b8 3e 90 07 15 3f 48 a4 2e 3f
       0.5866187 0.3596721 0.58214664 0.68219423
000040 04 87 26 3f 5d 92 60 3f cb 35 ee 3e e0 cb 5b 3f
       0.6504977 0.8772333 0.46525416 0.85857964
000050 e7 11 92 3f 3a b5 17 3f 1e 8d 33 3f b6 35 c7 3e
       1.1411713 0.59260905 0.701372 0.38908166
000060 de 2b 05 3f e5 a8 e7 3e 32 f3 c8 3e 52 fc 00 3f
       0.5202006 0.45246044 0.39248043 0.5038501
000070 78 dc 44 3f 4d 41 0f 3f a8 56 b3 3e 03 af 0c 3f
       0.7689891 0.55959016 0.3502705 0.54954547
